…
2025-01-26 23:22:52,941 - logger.py:50 - Namespace(amp=False, compute_stats=False, config_file='qm9/U0_config.yml', data_path='datasets/qm9', dist_url='env://', distributed=False, drop_path=0.0, feature_type='one_hot', local_rank=0, loss='l1', model_ema=False, model_ema_decay=0.9999, model_ema_force_cpu=False, output_dir='train_results/qm9/U0', pin_mem=True, print_freq=100, rank=0, seed=0, standardize=False, target=7, workers=4, world_size=1)
2025-01-26 23:22:58,940 - logger.py:50 - Training set mean: -76.12300872802734, std:10.329672813415527
2025-01-26 23:22:59,478 - logger.py:50 - EquiformerV2_QM9(
  (sphere_embedding): Embedding(90, 96)
  (distance_expansion): GaussianSmearing()
  (SO3_rotation): ModuleList(
    (0): SO3_Rotation(
      (mapping): CoefficientMappingModule(lmax_list=[4], mmax_list=[4])
    )
  )
  (mappingReduced): CoefficientMappingModule(lmax_list=[4], mmax_list=[4])
  (SO3_grid): (4, 4)
  (edge_degree_embedding): EdgeDegreeEmbedding(
    (SO3_rotation): ModuleList(
      (0): SO3_Rotation(
        (mapping): CoefficientMappingModule(lmax_list=[4], mmax_list=[4])
      )
    )
    (mappingReduced): CoefficientMappingModule(lmax_list=[4], mmax_list=[4])
    (source_embedding): Embedding(90, 64)
    (target_embedding): Embedding(90, 64)
    (rad_func): RadialFunction(
      (net): Sequential(
        (0): Linear(in_features=256, out_features=64, bias=True)
        (1): LayerNorm((64,), eps=1e-05, elementwise_affine=True)
        (2): SiLU()
        (3): Linear(in_features=64, out_features=64, bias=True)
        (4): LayerNorm((64,), eps=1e-05, elementwise_affine=True)
        (5): SiLU()
        (6): Linear(in_features=64, out_features=480, bias=True)
      )
    )
  )
  (blocks): ModuleList(
    (0): TransBlockV2(
      (norm_1): EquivariantLayerNormArraySphericalHarmonics(lmax=4, num_channels=96, eps=1e-05, std_balance_degrees=True)
      (ga): SO2EquivariantGraphAttention(
        (SO3_rotation): ModuleList(
          (0): SO3_Rotation(
            (mapping): CoefficientMappingModule(lmax_list=[4], mmax_list=[4])
          )
        )
        (mappingReduced): CoefficientMappingModule(lmax_list=[4], mmax_list=[4])
        (SO3_grid): (4, 4)
        (source_embedding): Embedding(90, 64)
        (target_embedding): Embedding(90, 64)
        (so2_conv_1): SO2_Convolution(
          (mappingReduced): CoefficientMappingModule(lmax_list=[4], mmax_list=[4])
          (fc_m0): Linear(in_features=960, out_features=544, bias=True)
          (so2_m_conv): ModuleList(
            (0): SO2_m_Convolution(
              (fc): Linear(in_features=768, out_features=384, bias=False)
            )
            (1): SO2_m_Convolution(
              (fc): Linear(in_features=576, out_features=288, bias=False)
            )
            (2): SO2_m_Convolution(
              (fc): Linear(in_features=384, out_features=192, bias=False)
            )
            (3): SO2_m_Convolution(
              (fc): Linear(in_features=192, out_features=96, bias=False)
            )
          )
          (rad_func): RadialFunction(
            (net): Sequential(
              (0): Linear(in_features=256, out_features=64, bias=True)
              (1): LayerNorm((64,), eps=1e-05, elementwise_affine=True)
              (2): SiLU()
              (3): Linear(in_features=64, out_features=64, bias=True)
              (4): LayerNorm((64,), eps=1e-05, elementwise_affine=True)
              (5): SiLU()
              (6): Linear(in_features=64, out_features=2880, bias=True)
            )
          )
        )
        (alpha_norm): LayerNorm((64,), eps=1e-05, elementwise_affine=True)
        (alpha_act): SmoothLeakyReLU(negative_slope=0.2)
        (s2_act): SeparableS2Activation(
          (scalar_act): SiLU()
          (s2_act): S2Activation(
            (act): SiLU()
          )
        )
        (so2_conv_2): SO2_Convolution(
          (mappingReduced): CoefficientMappingModule(lmax_list=[4], mmax_list=[4])
          (fc_m0): Linear(in_features=240, out_features=480, bias=True)
          (so2_m_conv): ModuleList(
            (0): SO2_m_Convolution(
              (fc): Linear(in_features=192, out_features=768, bias=False)
            )
            (1): SO2_m_Convolution(
              (fc): Linear(in_features=144, out_features=576, bias=False)
            )
            (2): SO2_m_Convolution(
              (fc): Linear(in_features=96, out_features=384, bias=False)
            )
            (3): SO2_m_Convolution(
              (fc): Linear(in_features=48, out_features=192, bias=False)
            )
          )
        )
        (proj): SO3_LinearV2(in_features=96, out_features=96, lmax=4)
      )
      (norm_2): EquivariantLayerNormArraySphericalHarmonics(lmax=4, num_channels=96, eps=1e-05, std_balance_degrees=True)
      (ffn): FeedForwardNetwork(
        (SO3_grid): (4, 4)
        (so3_linear_1): SO3_LinearV2(in_features=96, out_features=96, lmax=4)
        (scalar_mlp): Sequential(
          (0): Linear(in_features=96, out_features=96, bias=True)
          (1): SiLU()
        )
        (grid_mlp): Sequential(
          (0): Linear(in_features=96, out_features=96, bias=False)
          (1): SiLU()
          (2): Linear(in_features=96, out_features=96, bias=False)
          (3): SiLU()
          (4): Linear(in_features=96, out_features=96, bias=False)
        )
        (so3_linear_2): SO3_LinearV2(in_features=96, out_features=96, lmax=4)
      )
    )
    (1): TransBlockV2(
      (norm_1): EquivariantLayerNormArraySphericalHarmonics(lmax=4, num_channels=96, eps=1e-05, std_balance_degrees=True)
      (ga): SO2EquivariantGraphAttention(
        (SO3_rotation): ModuleList(
          (0): SO3_Rotation(
            (mapping): CoefficientMappingModule(lmax_list=[4], mmax_list=[4])
          )
        )
        (mappingReduced): CoefficientMappingModule(lmax_list=[4], mmax_list=[4])
        (SO3_grid): (4, 4)
        (source_embedding): Embedding(90, 64)
        (target_embedding): Embedding(90, 64)
        (so2_conv_1): SO2_Convolution(
          (mappingReduced): CoefficientMappingModule(lmax_list=[4], mmax_list=[4])
          (fc_m0): Linear(in_features=960, out_features=544, bias=True)
          (so2_m_conv): ModuleList(
            (0): SO2_m_Convolution(
              (fc): Linear(in_features=768, out_features=384, bias=False)
            )
            (1): SO2_m_Convolution(
              (fc): Linear(in_features=576, out_features=288, bias=False)
            )
            (2): SO2_m_Convolution(
              (fc): Linear(in_features=384, out_features=192, bias=False)
            )
            (3): SO2_m_Convolution(
              (fc): Linear(in_features=192, out_features=96, bias=False)
            )
          )
          (rad_func): RadialFunction(
            (net): Sequential(
              (0): Linear(in_features=256, out_features=64, bias=True)
              (1): LayerNorm((64,), eps=1e-05, elementwise_affine=True)
              (2): SiLU()
              (3): Linear(in_features=64, out_features=64, bias=True)
              (4): LayerNorm((64,), eps=1e-05, elementwise_affine=True)
              (5): SiLU()
              (6): Linear(in_features=64, out_features=2880, bias=True)
            )
          )
        )
        (alpha_norm): LayerNorm((64,), eps=1e-05, elementwise_affine=True)
        (alpha_act): SmoothLeakyReLU(negative_slope=0.2)
        (s2_act): SeparableS2Activation(
          (scalar_act): SiLU()
          (s2_act): S2Activation(
            (act): SiLU()
          )
        )
        (so2_conv_2): SO2_Convolution(
          (mappingReduced): CoefficientMappingModule(lmax_list=[4], mmax_list=[4])
          (fc_m0): Linear(in_features=240, out_features=480, bias=True)
          (so2_m_conv): ModuleList(
            (0): SO2_m_Convolution(
              (fc): Linear(in_features=192, out_features=768, bias=False)
            )
            (1): SO2_m_Convolution(
              (fc): Linear(in_features=144, out_features=576, bias=False)
            )
            (2): SO2_m_Convolution(
              (fc): Linear(in_features=96, out_features=384, bias=False)
            )
            (3): SO2_m_Convolution(
              (fc): Linear(in_features=48, out_features=192, bias=False)
            )
          )
        )
        (proj): SO3_LinearV2(in_features=96, out_features=96, lmax=4)
      )
      (norm_2): EquivariantLayerNormArraySphericalHarmonics(lmax=4, num_channels=96, eps=1e-05, std_balance_degrees=True)
      (ffn): FeedForwardNetwork(
        (SO3_grid): (4, 4)
        (so3_linear_1): SO3_LinearV2(in_features=96, out_features=96, lmax=4)
        (scalar_mlp): Sequential(
          (0): Linear(in_features=96, out_features=96, bias=True)
          (1): SiLU()
        )
        (grid_mlp): Sequential(
          (0): Linear(in_features=96, out_features=96, bias=False)
          (1): SiLU()
          (2): Linear(in_features=96, out_features=96, bias=False)
          (3): SiLU()
          (4): Linear(in_features=96, out_features=96, bias=False)
        )
        (so3_linear_2): SO3_LinearV2(in_features=96, out_features=96, lmax=4)
      )
    )
    (2): TransBlockV2(
      (norm_1): EquivariantLayerNormArraySphericalHarmonics(lmax=4, num_channels=96, eps=1e-05, std_balance_degrees=True)
      (ga): SO2EquivariantGraphAttention(
        (SO3_rotation): ModuleList(
          (0): SO3_Rotation(
            (mapping): CoefficientMappingModule(lmax_list=[4], mmax_list=[4])
          )
        )
        (mappingReduced): CoefficientMappingModule(lmax_list=[4], mmax_list=[4])
        (SO3_grid): (4, 4)
        (source_embedding): Embedding(90, 64)
        (target_embedding): Embedding(90, 64)
        (so2_conv_1): SO2_Convolution(
          (mappingReduced): CoefficientMappingModule(lmax_list=[4], mmax_list=[4])
          (fc_m0): Linear(in_features=960, out_features=544, bias=True)
          (so2_m_conv): ModuleList(
            (0): SO2_m_Convolution(
              (fc): Linear(in_features=768, out_features=384, bias=False)
            )
            (1): SO2_m_Convolution(
              (fc): Linear(in_features=576, out_features=288, bias=False)
            )
            (2): SO2_m_Convolution(
              (fc): Linear(in_features=384, out_features=192, bias=False)
            )
            (3): SO2_m_Convolution(
              (fc): Linear(in_features=192, out_features=96, bias=False)
            )
          )
          (rad_func): RadialFunction(
            (net): Sequential(
              (0): Linear(in_features=256, out_features=64, bias=True)
              (1): LayerNorm((64,), eps=1e-05, elementwise_affine=True)
              (2): SiLU()
              (3): Linear(in_features=64, out_features=64, bias=True)
              (4): LayerNorm((64,), eps=1e-05, elementwise_affine=True)
              (5): SiLU()
              (6): Linear(in_features=64, out_features=2880, bias=True)
            )
          )
        )
        (alpha_norm): LayerNorm((64,), eps=1e-05, elementwise_affine=True)
        (alpha_act): SmoothLeakyReLU(negative_slope=0.2)
        (s2_act): SeparableS2Activation(
          (scalar_act): SiLU()
          (s2_act): S2Activation(
            (act): SiLU()
          )
        )
        (so2_conv_2): SO2_Convolution(
          (mappingReduced): CoefficientMappingModule(lmax_list=[4], mmax_list=[4])
          (fc_m0): Linear(in_features=240, out_features=480, bias=True)
          (so2_m_conv): ModuleList(
            (0): SO2_m_Convolution(
              (fc): Linear(in_features=192, out_features=768, bias=False)
            )
            (1): SO2_m_Convolution(
              (fc): Linear(in_features=144, out_features=576, bias=False)
            )
            (2): SO2_m_Convolution(
              (fc): Linear(in_features=96, out_features=384, bias=False)
            )
            (3): SO2_m_Convolution(
              (fc): Linear(in_features=48, out_features=192, bias=False)
            )
          )
        )
        (proj): SO3_LinearV2(in_features=96, out_features=96, lmax=4)
      )
      (norm_2): EquivariantLayerNormArraySphericalHarmonics(lmax=4, num_channels=96, eps=1e-05, std_balance_degrees=True)
      (ffn): FeedForwardNetwork(
        (SO3_grid): (4, 4)
        (so3_linear_1): SO3_LinearV2(in_features=96, out_features=96, lmax=4)
        (scalar_mlp): Sequential(
          (0): Linear(in_features=96, out_features=96, bias=True)
          (1): SiLU()
        )
        (grid_mlp): Sequential(
          (0): Linear(in_features=96, out_features=96, bias=False)
          (1): SiLU()
          (2): Linear(in_features=96, out_features=96, bias=False)
          (3): SiLU()
          (4): Linear(in_features=96, out_features=96, bias=False)
        )
        (so3_linear_2): SO3_LinearV2(in_features=96, out_features=96, lmax=4)
      )
    )
    (3): TransBlockV2(
      (norm_1): EquivariantLayerNormArraySphericalHarmonics(lmax=4, num_channels=96, eps=1e-05, std_balance_degrees=True)
      (ga): SO2EquivariantGraphAttention(
        (SO3_rotation): ModuleList(
          (0): SO3_Rotation(
            (mapping): CoefficientMappingModule(lmax_list=[4], mmax_list=[4])
          )
        )
        (mappingReduced): CoefficientMappingModule(lmax_list=[4], mmax_list=[4])
        (SO3_grid): (4, 4)
        (source_embedding): Embedding(90, 64)
        (target_embedding): Embedding(90, 64)
        (so2_conv_1): SO2_Convolution(
          (mappingReduced): CoefficientMappingModule(lmax_list=[4], mmax_list=[4])
          (fc_m0): Linear(in_features=960, out_features=544, bias=True)
          (so2_m_conv): ModuleList(
            (0): SO2_m_Convolution(
              (fc): Linear(in_features=768, out_features=384, bias=False)
            )
            (1): SO2_m_Convolution(
              (fc): Linear(in_features=576, out_features=288, bias=False)
            )
            (2): SO2_m_Convolution(
              (fc): Linear(in_features=384, out_features=192, bias=False)
            )
            (3): SO2_m_Convolution(
              (fc): Linear(in_features=192, out_features=96, bias=False)
            )
          )
          (rad_func): RadialFunction(
            (net): Sequential(
              (0): Linear(in_features=256, out_features=64, bias=True)
              (1): LayerNorm((64,), eps=1e-05, elementwise_affine=True)
              (2): SiLU()
              (3): Linear(in_features=64, out_features=64, bias=True)
              (4): LayerNorm((64,), eps=1e-05, elementwise_affine=True)
              (5): SiLU()
              (6): Linear(in_features=64, out_features=2880, bias=True)
            )
          )
        )
        (alpha_norm): LayerNorm((64,), eps=1e-05, elementwise_affine=True)
        (alpha_act): SmoothLeakyReLU(negative_slope=0.2)
        (s2_act): SeparableS2Activation(
          (scalar_act): SiLU()
          (s2_act): S2Activation(
            (act): SiLU()
          )
        )
        (so2_conv_2): SO2_Convolution(
          (mappingReduced): CoefficientMappingModule(lmax_list=[4], mmax_list=[4])
          (fc_m0): Linear(in_features=240, out_features=480, bias=True)
          (so2_m_conv): ModuleList(
            (0): SO2_m_Convolution(
              (fc): Linear(in_features=192, out_features=768, bias=False)
            )
            (1): SO2_m_Convolution(
              (fc): Linear(in_features=144, out_features=576, bias=False)
            )
            (2): SO2_m_Convolution(
              (fc): Linear(in_features=96, out_features=384, bias=False)
            )
            (3): SO2_m_Convolution(
              (fc): Linear(in_features=48, out_features=192, bias=False)
            )
          )
        )
        (proj): SO3_LinearV2(in_features=96, out_features=96, lmax=4)
      )
      (norm_2): EquivariantLayerNormArraySphericalHarmonics(lmax=4, num_channels=96, eps=1e-05, std_balance_degrees=True)
      (ffn): FeedForwardNetwork(
        (SO3_grid): (4, 4)
        (so3_linear_1): SO3_LinearV2(in_features=96, out_features=96, lmax=4)
        (scalar_mlp): Sequential(
          (0): Linear(in_features=96, out_features=96, bias=True)
          (1): SiLU()
        )
        (grid_mlp): Sequential(
          (0): Linear(in_features=96, out_features=96, bias=False)
          (1): SiLU()
          (2): Linear(in_features=96, out_features=96, bias=False)
          (3): SiLU()
          (4): Linear(in_features=96, out_features=96, bias=False)
        )
        (so3_linear_2): SO3_LinearV2(in_features=96, out_features=96, lmax=4)
      )
    )
    (4): TransBlockV2(
      (norm_1): EquivariantLayerNormArraySphericalHarmonics(lmax=4, num_channels=96, eps=1e-05, std_balance_degrees=True)
      (ga): SO2EquivariantGraphAttention(
        (SO3_rotation): ModuleList(
          (0): SO3_Rotation(
            (mapping): CoefficientMappingModule(lmax_list=[4], mmax_list=[4])
          )
        )
        (mappingReduced): CoefficientMappingModule(lmax_list=[4], mmax_list=[4])
        (SO3_grid): (4, 4)
        (source_embedding): Embedding(90, 64)
        (target_embedding): Embedding(90, 64)
        (so2_conv_1): SO2_Convolution(
          (mappingReduced): CoefficientMappingModule(lmax_list=[4], mmax_list=[4])
          (fc_m0): Linear(in_features=960, out_features=544, bias=True)
          (so2_m_conv): ModuleList(
            (0): SO2_m_Convolution(
              (fc): Linear(in_features=768, out_features=384, bias=False)
            )
            (1): SO2_m_Convolution(
              (fc): Linear(in_features=576, out_features=288, bias=False)
            )
            (2): SO2_m_Convolution(
              (fc): Linear(in_features=384, out_features=192, bias=False)
            )
            (3): SO2_m_Convolution(
              (fc): Linear(in_features=192, out_features=96, bias=False)
            )
          )
          (rad_func): RadialFunction(
            (net): Sequential(
              (0): Linear(in_features=256, out_features=64, bias=True)
              (1): LayerNorm((64,), eps=1e-05, elementwise_affine=True)
              (2): SiLU()
              (3): Linear(in_features=64, out_features=64, bias=True)
              (4): LayerNorm((64,), eps=1e-05, elementwise_affine=True)
              (5): SiLU()
              (6): Linear(in_features=64, out_features=2880, bias=True)
            )
          )
        )
        (alpha_norm): LayerNorm((64,), eps=1e-05, elementwise_affine=True)
        (alpha_act): SmoothLeakyReLU(negative_slope=0.2)
        (s2_act): SeparableS2Activation(
          (scalar_act): SiLU()
          (s2_act): S2Activation(
            (act): SiLU()
          )
        )
        (so2_conv_2): SO2_Convolution(
          (mappingReduced): CoefficientMappingModule(lmax_list=[4], mmax_list=[4])
          (fc_m0): Linear(in_features=240, out_features=480, bias=True)
          (so2_m_conv): ModuleList(
            (0): SO2_m_Convolution(
              (fc): Linear(in_features=192, out_features=768, bias=False)
            )
            (1): SO2_m_Convolution(
              (fc): Linear(in_features=144, out_features=576, bias=False)
            )
            (2): SO2_m_Convolution(
              (fc): Linear(in_features=96, out_features=384, bias=False)
            )
            (3): SO2_m_Convolution(
              (fc): Linear(in_features=48, out_features=192, bias=False)
            )
          )
        )
        (proj): SO3_LinearV2(in_features=96, out_features=96, lmax=4)
      )
      (norm_2): EquivariantLayerNormArraySphericalHarmonics(lmax=4, num_channels=96, eps=1e-05, std_balance_degrees=True)
      (ffn): FeedForwardNetwork(
        (SO3_grid): (4, 4)
        (so3_linear_1): SO3_LinearV2(in_features=96, out_features=96, lmax=4)
        (scalar_mlp): Sequential(
          (0): Linear(in_features=96, out_features=96, bias=True)
          (1): SiLU()
        )
        (grid_mlp): Sequential(
          (0): Linear(in_features=96, out_features=96, bias=False)
          (1): SiLU()
          (2): Linear(in_features=96, out_features=96, bias=False)
          (3): SiLU()
          (4): Linear(in_features=96, out_features=96, bias=False)
        )
        (so3_linear_2): SO3_LinearV2(in_features=96, out_features=96, lmax=4)
      )
    )
  )
  (norm): EquivariantLayerNormArraySphericalHarmonics(lmax=4, num_channels=96, eps=1e-05, std_balance_degrees=True)
  (energy_block): FeedForwardNetwork(
    (SO3_grid): (4, 4)
    (so3_linear_1): SO3_LinearV2(in_features=96, out_features=96, lmax=4)
    (scalar_mlp): Sequential(
      (0): Linear(in_features=96, out_features=96, bias=True)
      (1): SiLU()
    )
    (grid_mlp): Sequential(
      (0): Linear(in_features=96, out_features=96, bias=False)
      (1): SiLU()
      (2): Linear(in_features=96, out_features=96, bias=False)
      (3): SiLU()
      (4): Linear(in_features=96, out_features=96, bias=False)
    )
    (so3_linear_2): SO3_LinearV2(in_features=96, out_features=1, lmax=4)
  )
)
2025-01-26 23:23:00,192 - logger.py:50 - Number of params: 9478977
2025-01-26 23:24:59,959 - logger.py:50 - Namespace(amp=False, compute_stats=False, config_file='qm9/U0_config.yml', data_path='datasets/qm9', dist_url='env://', distributed=False, drop_path=0.0, feature_type='one_hot', local_rank=0, loss='l1', model_ema=False, model_ema_decay=0.9999, model_ema_force_cpu=False, output_dir='train_results/qm9/U0', pin_mem=True, print_freq=100, rank=0, seed=0, standardize=False, target=7, workers=4, world_size=1)
2025-01-26 23:25:06,178 - logger.py:50 - Training set mean: -76.12300872802734, std:10.329672813415527
2025-01-26 23:25:06,725 - logger.py:50 - EquiformerV2_QM9(
  (sphere_embedding): Embedding(90, 96)
  (distance_expansion): GaussianSmearing()
  (SO3_rotation): ModuleList(
    (0): SO3_Rotation(
      (mapping): CoefficientMappingModule(lmax_list=[4], mmax_list=[4])
    )
  )
  (mappingReduced): CoefficientMappingModule(lmax_list=[4], mmax_list=[4])
  (SO3_grid): (4, 4)
  (edge_degree_embedding): EdgeDegreeEmbedding(
    (SO3_rotation): ModuleList(
      (0): SO3_Rotation(
        (mapping): CoefficientMappingModule(lmax_list=[4], mmax_list=[4])
      )
    )
    (mappingReduced): CoefficientMappingModule(lmax_list=[4], mmax_list=[4])
    (source_embedding): Embedding(90, 64)
    (target_embedding): Embedding(90, 64)
    (rad_func): RadialFunction(
      (net): Sequential(
        (0): Linear(in_features=256, out_features=64, bias=True)
        (1): LayerNorm((64,), eps=1e-05, elementwise_affine=True)
        (2): SiLU()
        (3): Linear(in_features=64, out_features=64, bias=True)
        (4): LayerNorm((64,), eps=1e-05, elementwise_affine=True)
        (5): SiLU()
        (6): Linear(in_features=64, out_features=480, bias=True)
      )
    )
  )
  (blocks): ModuleList(
    (0): TransBlockV2(
      (norm_1): EquivariantLayerNormArraySphericalHarmonics(lmax=4, num_channels=96, eps=1e-05, std_balance_degrees=True)
      (ga): SO2EquivariantGraphAttention(
        (SO3_rotation): ModuleList(
          (0): SO3_Rotation(
            (mapping): CoefficientMappingModule(lmax_list=[4], mmax_list=[4])
          )
        )
        (mappingReduced): CoefficientMappingModule(lmax_list=[4], mmax_list=[4])
        (SO3_grid): (4, 4)
        (source_embedding): Embedding(90, 64)
        (target_embedding): Embedding(90, 64)
        (so2_conv_1): SO2_Convolution(
          (mappingReduced): CoefficientMappingModule(lmax_list=[4], mmax_list=[4])
          (fc_m0): Linear(in_features=960, out_features=544, bias=True)
          (so2_m_conv): ModuleList(
            (0): SO2_m_Convolution(
              (fc): Linear(in_features=768, out_features=384, bias=False)
            )
            (1): SO2_m_Convolution(
              (fc): Linear(in_features=576, out_features=288, bias=False)
            )
            (2): SO2_m_Convolution(
              (fc): Linear(in_features=384, out_features=192, bias=False)
            )
            (3): SO2_m_Convolution(
              (fc): Linear(in_features=192, out_features=96, bias=False)
            )
          )
          (rad_func): RadialFunction(
            (net): Sequential(
              (0): Linear(in_features=256, out_features=64, bias=True)
              (1): LayerNorm((64,), eps=1e-05, elementwise_affine=True)
              (2): SiLU()
              (3): Linear(in_features=64, out_features=64, bias=True)
              (4): LayerNorm((64,), eps=1e-05, elementwise_affine=True)
              (5): SiLU()
              (6): Linear(in_features=64, out_features=2880, bias=True)
            )
          )
        )
        (alpha_norm): LayerNorm((64,), eps=1e-05, elementwise_affine=True)
        (alpha_act): SmoothLeakyReLU(negative_slope=0.2)
        (s2_act): SeparableS2Activation(
          (scalar_act): SiLU()
          (s2_act): S2Activation(
            (act): SiLU()
          )
        )
        (so2_conv_2): SO2_Convolution(
          (mappingReduced): CoefficientMappingModule(lmax_list=[4], mmax_list=[4])
          (fc_m0): Linear(in_features=240, out_features=480, bias=True)
          (so2_m_conv): ModuleList(
            (0): SO2_m_Convolution(
              (fc): Linear(in_features=192, out_features=768, bias=False)
            )
            (1): SO2_m_Convolution(
              (fc): Linear(in_features=144, out_features=576, bias=False)
            )
            (2): SO2_m_Convolution(
              (fc): Linear(in_features=96, out_features=384, bias=False)
            )
            (3): SO2_m_Convolution(
              (fc): Linear(in_features=48, out_features=192, bias=False)
            )
          )
        )
        (proj): SO3_LinearV2(in_features=96, out_features=96, lmax=4)
      )
      (norm_2): EquivariantLayerNormArraySphericalHarmonics(lmax=4, num_channels=96, eps=1e-05, std_balance_degrees=True)
      (ffn): FeedForwardNetwork(
        (SO3_grid): (4, 4)
        (so3_linear_1): SO3_LinearV2(in_features=96, out_features=96, lmax=4)
        (scalar_mlp): Sequential(
          (0): Linear(in_features=96, out_features=96, bias=True)
          (1): SiLU()
        )
        (grid_mlp): Sequential(
          (0): Linear(in_features=96, out_features=96, bias=False)
          (1): SiLU()
          (2): Linear(in_features=96, out_features=96, bias=False)
          (3): SiLU()
          (4): Linear(in_features=96, out_features=96, bias=False)
        )
        (so3_linear_2): SO3_LinearV2(in_features=96, out_features=96, lmax=4)
      )
    )
    (1): TransBlockV2(
      (norm_1): EquivariantLayerNormArraySphericalHarmonics(lmax=4, num_channels=96, eps=1e-05, std_balance_degrees=True)
      (ga): SO2EquivariantGraphAttention(
        (SO3_rotation): ModuleList(
          (0): SO3_Rotation(
            (mapping): CoefficientMappingModule(lmax_list=[4], mmax_list=[4])
          )
        )
        (mappingReduced): CoefficientMappingModule(lmax_list=[4], mmax_list=[4])
        (SO3_grid): (4, 4)
        (source_embedding): Embedding(90, 64)
        (target_embedding): Embedding(90, 64)
        (so2_conv_1): SO2_Convolution(
          (mappingReduced): CoefficientMappingModule(lmax_list=[4], mmax_list=[4])
          (fc_m0): Linear(in_features=960, out_features=544, bias=True)
          (so2_m_conv): ModuleList(
            (0): SO2_m_Convolution(
              (fc): Linear(in_features=768, out_features=384, bias=False)
            )
            (1): SO2_m_Convolution(
              (fc): Linear(in_features=576, out_features=288, bias=False)
            )
            (2): SO2_m_Convolution(
              (fc): Linear(in_features=384, out_features=192, bias=False)
            )
            (3): SO2_m_Convolution(
              (fc): Linear(in_features=192, out_features=96, bias=False)
            )
          )
          (rad_func): RadialFunction(
            (net): Sequential(
              (0): Linear(in_features=256, out_features=64, bias=True)
              (1): LayerNorm((64,), eps=1e-05, elementwise_affine=True)
              (2): SiLU()
              (3): Linear(in_features=64, out_features=64, bias=True)
              (4): LayerNorm((64,), eps=1e-05, elementwise_affine=True)
              (5): SiLU()
              (6): Linear(in_features=64, out_features=2880, bias=True)
            )
          )
        )
        (alpha_norm): LayerNorm((64,), eps=1e-05, elementwise_affine=True)
        (alpha_act): SmoothLeakyReLU(negative_slope=0.2)
        (s2_act): SeparableS2Activation(
          (scalar_act): SiLU()
          (s2_act): S2Activation(
            (act): SiLU()
          )
        )
        (so2_conv_2): SO2_Convolution(
          (mappingReduced): CoefficientMappingModule(lmax_list=[4], mmax_list=[4])
          (fc_m0): Linear(in_features=240, out_features=480, bias=True)
          (so2_m_conv): ModuleList(
            (0): SO2_m_Convolution(
              (fc): Linear(in_features=192, out_features=768, bias=False)
            )
            (1): SO2_m_Convolution(
              (fc): Linear(in_features=144, out_features=576, bias=False)
            )
            (2): SO2_m_Convolution(
              (fc): Linear(in_features=96, out_features=384, bias=False)
            )
            (3): SO2_m_Convolution(
              (fc): Linear(in_features=48, out_features=192, bias=False)
            )
          )
        )
        (proj): SO3_LinearV2(in_features=96, out_features=96, lmax=4)
      )
      (norm_2): EquivariantLayerNormArraySphericalHarmonics(lmax=4, num_channels=96, eps=1e-05, std_balance_degrees=True)
      (ffn): FeedForwardNetwork(
        (SO3_grid): (4, 4)
        (so3_linear_1): SO3_LinearV2(in_features=96, out_features=96, lmax=4)
        (scalar_mlp): Sequential(
          (0): Linear(in_features=96, out_features=96, bias=True)
          (1): SiLU()
        )
        (grid_mlp): Sequential(
          (0): Linear(in_features=96, out_features=96, bias=False)
          (1): SiLU()
          (2): Linear(in_features=96, out_features=96, bias=False)
          (3): SiLU()
          (4): Linear(in_features=96, out_features=96, bias=False)
        )
        (so3_linear_2): SO3_LinearV2(in_features=96, out_features=96, lmax=4)
      )
    )
    (2): TransBlockV2(
      (norm_1): EquivariantLayerNormArraySphericalHarmonics(lmax=4, num_channels=96, eps=1e-05, std_balance_degrees=True)
      (ga): SO2EquivariantGraphAttention(
        (SO3_rotation): ModuleList(
          (0): SO3_Rotation(
            (mapping): CoefficientMappingModule(lmax_list=[4], mmax_list=[4])
          )
        )
        (mappingReduced): CoefficientMappingModule(lmax_list=[4], mmax_list=[4])
        (SO3_grid): (4, 4)
        (source_embedding): Embedding(90, 64)
        (target_embedding): Embedding(90, 64)
        (so2_conv_1): SO2_Convolution(
          (mappingReduced): CoefficientMappingModule(lmax_list=[4], mmax_list=[4])
          (fc_m0): Linear(in_features=960, out_features=544, bias=True)
          (so2_m_conv): ModuleList(
            (0): SO2_m_Convolution(
              (fc): Linear(in_features=768, out_features=384, bias=False)
            )
            (1): SO2_m_Convolution(
              (fc): Linear(in_features=576, out_features=288, bias=False)
            )
            (2): SO2_m_Convolution(
              (fc): Linear(in_features=384, out_features=192, bias=False)
            )
            (3): SO2_m_Convolution(
              (fc): Linear(in_features=192, out_features=96, bias=False)
            )
          )
          (rad_func): RadialFunction(
            (net): Sequential(
              (0): Linear(in_features=256, out_features=64, bias=True)
              (1): LayerNorm((64,), eps=1e-05, elementwise_affine=True)
              (2): SiLU()
              (3): Linear(in_features=64, out_features=64, bias=True)
              (4): LayerNorm((64,), eps=1e-05, elementwise_affine=True)
              (5): SiLU()
              (6): Linear(in_features=64, out_features=2880, bias=True)
            )
          )
        )
        (alpha_norm): LayerNorm((64,), eps=1e-05, elementwise_affine=True)
        (alpha_act): SmoothLeakyReLU(negative_slope=0.2)
        (s2_act): SeparableS2Activation(
          (scalar_act): SiLU()
          (s2_act): S2Activation(
            (act): SiLU()
          )
        )
        (so2_conv_2): SO2_Convolution(
          (mappingReduced): CoefficientMappingModule(lmax_list=[4], mmax_list=[4])
          (fc_m0): Linear(in_features=240, out_features=480, bias=True)
          (so2_m_conv): ModuleList(
            (0): SO2_m_Convolution(
              (fc): Linear(in_features=192, out_features=768, bias=False)
            )
            (1): SO2_m_Convolution(
              (fc): Linear(in_features=144, out_features=576, bias=False)
            )
            (2): SO2_m_Convolution(
              (fc): Linear(in_features=96, out_features=384, bias=False)
            )
            (3): SO2_m_Convolution(
              (fc): Linear(in_features=48, out_features=192, bias=False)
            )
          )
        )
        (proj): SO3_LinearV2(in_features=96, out_features=96, lmax=4)
      )
      (norm_2): EquivariantLayerNormArraySphericalHarmonics(lmax=4, num_channels=96, eps=1e-05, std_balance_degrees=True)
      (ffn): FeedForwardNetwork(
        (SO3_grid): (4, 4)
        (so3_linear_1): SO3_LinearV2(in_features=96, out_features=96, lmax=4)
        (scalar_mlp): Sequential(
          (0): Linear(in_features=96, out_features=96, bias=True)
          (1): SiLU()
        )
        (grid_mlp): Sequential(
          (0): Linear(in_features=96, out_features=96, bias=False)
          (1): SiLU()
          (2): Linear(in_features=96, out_features=96, bias=False)
          (3): SiLU()
          (4): Linear(in_features=96, out_features=96, bias=False)
        )
        (so3_linear_2): SO3_LinearV2(in_features=96, out_features=96, lmax=4)
      )
    )
    (3): TransBlockV2(
      (norm_1): EquivariantLayerNormArraySphericalHarmonics(lmax=4, num_channels=96, eps=1e-05, std_balance_degrees=True)
      (ga): SO2EquivariantGraphAttention(
        (SO3_rotation): ModuleList(
          (0): SO3_Rotation(
            (mapping): CoefficientMappingModule(lmax_list=[4], mmax_list=[4])
          )
        )
        (mappingReduced): CoefficientMappingModule(lmax_list=[4], mmax_list=[4])
        (SO3_grid): (4, 4)
        (source_embedding): Embedding(90, 64)
        (target_embedding): Embedding(90, 64)
        (so2_conv_1): SO2_Convolution(
          (mappingReduced): CoefficientMappingModule(lmax_list=[4], mmax_list=[4])
          (fc_m0): Linear(in_features=960, out_features=544, bias=True)
          (so2_m_conv): ModuleList(
            (0): SO2_m_Convolution(
              (fc): Linear(in_features=768, out_features=384, bias=False)
            )
            (1): SO2_m_Convolution(
              (fc): Linear(in_features=576, out_features=288, bias=False)
            )
            (2): SO2_m_Convolution(
              (fc): Linear(in_features=384, out_features=192, bias=False)
            )
            (3): SO2_m_Convolution(
              (fc): Linear(in_features=192, out_features=96, bias=False)
            )
          )
          (rad_func): RadialFunction(
            (net): Sequential(
              (0): Linear(in_features=256, out_features=64, bias=True)
              (1): LayerNorm((64,), eps=1e-05, elementwise_affine=True)
              (2): SiLU()
              (3): Linear(in_features=64, out_features=64, bias=True)
              (4): LayerNorm((64,), eps=1e-05, elementwise_affine=True)
              (5): SiLU()
              (6): Linear(in_features=64, out_features=2880, bias=True)
            )
          )
        )
        (alpha_norm): LayerNorm((64,), eps=1e-05, elementwise_affine=True)
        (alpha_act): SmoothLeakyReLU(negative_slope=0.2)
        (s2_act): SeparableS2Activation(
          (scalar_act): SiLU()
          (s2_act): S2Activation(
            (act): SiLU()
          )
        )
        (so2_conv_2): SO2_Convolution(
          (mappingReduced): CoefficientMappingModule(lmax_list=[4], mmax_list=[4])
          (fc_m0): Linear(in_features=240, out_features=480, bias=True)
          (so2_m_conv): ModuleList(
            (0): SO2_m_Convolution(
              (fc): Linear(in_features=192, out_features=768, bias=False)
            )
            (1): SO2_m_Convolution(
              (fc): Linear(in_features=144, out_features=576, bias=False)
            )
            (2): SO2_m_Convolution(
              (fc): Linear(in_features=96, out_features=384, bias=False)
            )
            (3): SO2_m_Convolution(
              (fc): Linear(in_features=48, out_features=192, bias=False)
            )
          )
        )
        (proj): SO3_LinearV2(in_features=96, out_features=96, lmax=4)
      )
      (norm_2): EquivariantLayerNormArraySphericalHarmonics(lmax=4, num_channels=96, eps=1e-05, std_balance_degrees=True)
      (ffn): FeedForwardNetwork(
        (SO3_grid): (4, 4)
        (so3_linear_1): SO3_LinearV2(in_features=96, out_features=96, lmax=4)
        (scalar_mlp): Sequential(
          (0): Linear(in_features=96, out_features=96, bias=True)
          (1): SiLU()
        )
        (grid_mlp): Sequential(
          (0): Linear(in_features=96, out_features=96, bias=False)
          (1): SiLU()
          (2): Linear(in_features=96, out_features=96, bias=False)
          (3): SiLU()
          (4): Linear(in_features=96, out_features=96, bias=False)
        )
        (so3_linear_2): SO3_LinearV2(in_features=96, out_features=96, lmax=4)
      )
    )
    (4): TransBlockV2(
      (norm_1): EquivariantLayerNormArraySphericalHarmonics(lmax=4, num_channels=96, eps=1e-05, std_balance_degrees=True)
      (ga): SO2EquivariantGraphAttention(
        (SO3_rotation): ModuleList(
          (0): SO3_Rotation(
            (mapping): CoefficientMappingModule(lmax_list=[4], mmax_list=[4])
          )
        )
        (mappingReduced): CoefficientMappingModule(lmax_list=[4], mmax_list=[4])
        (SO3_grid): (4, 4)
        (source_embedding): Embedding(90, 64)
        (target_embedding): Embedding(90, 64)
        (so2_conv_1): SO2_Convolution(
          (mappingReduced): CoefficientMappingModule(lmax_list=[4], mmax_list=[4])
          (fc_m0): Linear(in_features=960, out_features=544, bias=True)
          (so2_m_conv): ModuleList(
            (0): SO2_m_Convolution(
              (fc): Linear(in_features=768, out_features=384, bias=False)
            )
            (1): SO2_m_Convolution(
              (fc): Linear(in_features=576, out_features=288, bias=False)
            )
            (2): SO2_m_Convolution(
              (fc): Linear(in_features=384, out_features=192, bias=False)
            )
            (3): SO2_m_Convolution(
              (fc): Linear(in_features=192, out_features=96, bias=False)
            )
          )
          (rad_func): RadialFunction(
            (net): Sequential(
              (0): Linear(in_features=256, out_features=64, bias=True)
              (1): LayerNorm((64,), eps=1e-05, elementwise_affine=True)
              (2): SiLU()
              (3): Linear(in_features=64, out_features=64, bias=True)
              (4): LayerNorm((64,), eps=1e-05, elementwise_affine=True)
              (5): SiLU()
              (6): Linear(in_features=64, out_features=2880, bias=True)
            )
          )
        )
        (alpha_norm): LayerNorm((64,), eps=1e-05, elementwise_affine=True)
        (alpha_act): SmoothLeakyReLU(negative_slope=0.2)
        (s2_act): SeparableS2Activation(
          (scalar_act): SiLU()
          (s2_act): S2Activation(
            (act): SiLU()
          )
        )
        (so2_conv_2): SO2_Convolution(
          (mappingReduced): CoefficientMappingModule(lmax_list=[4], mmax_list=[4])
          (fc_m0): Linear(in_features=240, out_features=480, bias=True)
          (so2_m_conv): ModuleList(
            (0): SO2_m_Convolution(
              (fc): Linear(in_features=192, out_features=768, bias=False)
            )
            (1): SO2_m_Convolution(
              (fc): Linear(in_features=144, out_features=576, bias=False)
            )
            (2): SO2_m_Convolution(
              (fc): Linear(in_features=96, out_features=384, bias=False)
            )
            (3): SO2_m_Convolution(
              (fc): Linear(in_features=48, out_features=192, bias=False)
            )
          )
        )
        (proj): SO3_LinearV2(in_features=96, out_features=96, lmax=4)
      )
      (norm_2): EquivariantLayerNormArraySphericalHarmonics(lmax=4, num_channels=96, eps=1e-05, std_balance_degrees=True)
      (ffn): FeedForwardNetwork(
        (SO3_grid): (4, 4)
        (so3_linear_1): SO3_LinearV2(in_features=96, out_features=96, lmax=4)
        (scalar_mlp): Sequential(
          (0): Linear(in_features=96, out_features=96, bias=True)
          (1): SiLU()
        )
        (grid_mlp): Sequential(
          (0): Linear(in_features=96, out_features=96, bias=False)
          (1): SiLU()
          (2): Linear(in_features=96, out_features=96, bias=False)
          (3): SiLU()
          (4): Linear(in_features=96, out_features=96, bias=False)
        )
        (so3_linear_2): SO3_LinearV2(in_features=96, out_features=96, lmax=4)
      )
    )
  )
  (norm): EquivariantLayerNormArraySphericalHarmonics(lmax=4, num_channels=96, eps=1e-05, std_balance_degrees=True)
  (energy_block): FeedForwardNetwork(
    (SO3_grid): (4, 4)
    (so3_linear_1): SO3_LinearV2(in_features=96, out_features=96, lmax=4)
    (scalar_mlp): Sequential(
      (0): Linear(in_features=96, out_features=96, bias=True)
      (1): SiLU()
    )
    (grid_mlp): Sequential(
      (0): Linear(in_features=96, out_features=96, bias=False)
      (1): SiLU()
      (2): Linear(in_features=96, out_features=96, bias=False)
      (3): SiLU()
      (4): Linear(in_features=96, out_features=96, bias=False)
    )
    (so3_linear_2): SO3_LinearV2(in_features=96, out_features=1, lmax=4)
  )
)
2025-01-26 23:25:07,437 - logger.py:50 - Number of params: 9478977
2025-01-26 23:25:53,670 - logger.py:50 - Namespace(amp=False, compute_stats=False, config_file='qm9/U0_config.yml', data_path='datasets/qm9', dist_url='env://', distributed=False, drop_path=0.0, feature_type='one_hot', local_rank=0, loss='l1', model_ema=False, model_ema_decay=0.9999, model_ema_force_cpu=False, output_dir='train_results/qm9/U0', pin_mem=True, print_freq=100, rank=0, seed=0, standardize=False, target=7, workers=4, world_size=1)
2025-01-26 23:25:59,868 - logger.py:50 - Training set mean: -76.12300872802734, std:10.329672813415527
2025-01-26 23:26:00,424 - logger.py:50 - EquiformerV2_QM9(
  (sphere_embedding): Embedding(90, 96)
  (distance_expansion): GaussianSmearing()
  (SO3_rotation): ModuleList(
    (0): SO3_Rotation(
      (mapping): CoefficientMappingModule(lmax_list=[4], mmax_list=[4])
    )
  )
  (mappingReduced): CoefficientMappingModule(lmax_list=[4], mmax_list=[4])
  (SO3_grid): (4, 4)
  (edge_degree_embedding): EdgeDegreeEmbedding(
    (SO3_rotation): ModuleList(
      (0): SO3_Rotation(
        (mapping): CoefficientMappingModule(lmax_list=[4], mmax_list=[4])
      )
    )
    (mappingReduced): CoefficientMappingModule(lmax_list=[4], mmax_list=[4])
    (source_embedding): Embedding(90, 64)
    (target_embedding): Embedding(90, 64)
    (rad_func): RadialFunction(
      (net): Sequential(
        (0): Linear(in_features=256, out_features=64, bias=True)
        (1): LayerNorm((64,), eps=1e-05, elementwise_affine=True)
        (2): SiLU()
        (3): Linear(in_features=64, out_features=64, bias=True)
        (4): LayerNorm((64,), eps=1e-05, elementwise_affine=True)
        (5): SiLU()
        (6): Linear(in_features=64, out_features=480, bias=True)
      )
    )
  )
  (blocks): ModuleList(
    (0): TransBlockV2(
      (norm_1): EquivariantLayerNormArraySphericalHarmonics(lmax=4, num_channels=96, eps=1e-05, std_balance_degrees=True)
      (ga): SO2EquivariantGraphAttention(
        (SO3_rotation): ModuleList(
          (0): SO3_Rotation(
            (mapping): CoefficientMappingModule(lmax_list=[4], mmax_list=[4])
          )
        )
        (mappingReduced): CoefficientMappingModule(lmax_list=[4], mmax_list=[4])
        (SO3_grid): (4, 4)
        (source_embedding): Embedding(90, 64)
        (target_embedding): Embedding(90, 64)
        (so2_conv_1): SO2_Convolution(
          (mappingReduced): CoefficientMappingModule(lmax_list=[4], mmax_list=[4])
          (fc_m0): Linear(in_features=960, out_features=544, bias=True)
          (so2_m_conv): ModuleList(
            (0): SO2_m_Convolution(
              (fc): Linear(in_features=768, out_features=384, bias=False)
            )
            (1): SO2_m_Convolution(
              (fc): Linear(in_features=576, out_features=288, bias=False)
            )
            (2): SO2_m_Convolution(
              (fc): Linear(in_features=384, out_features=192, bias=False)
            )
            (3): SO2_m_Convolution(
              (fc): Linear(in_features=192, out_features=96, bias=False)
            )
          )
          (rad_func): RadialFunction(
            (net): Sequential(
              (0): Linear(in_features=256, out_features=64, bias=True)
              (1): LayerNorm((64,), eps=1e-05, elementwise_affine=True)
              (2): SiLU()
              (3): Linear(in_features=64, out_features=64, bias=True)
              (4): LayerNorm((64,), eps=1e-05, elementwise_affine=True)
              (5): SiLU()
              (6): Linear(in_features=64, out_features=2880, bias=True)
            )
          )
        )
        (alpha_norm): LayerNorm((64,), eps=1e-05, elementwise_affine=True)
        (alpha_act): SmoothLeakyReLU(negative_slope=0.2)
        (s2_act): SeparableS2Activation(
          (scalar_act): SiLU()
          (s2_act): S2Activation(
            (act): SiLU()
          )
        )
        (so2_conv_2): SO2_Convolution(
          (mappingReduced): CoefficientMappingModule(lmax_list=[4], mmax_list=[4])
          (fc_m0): Linear(in_features=240, out_features=480, bias=True)
          (so2_m_conv): ModuleList(
            (0): SO2_m_Convolution(
              (fc): Linear(in_features=192, out_features=768, bias=False)
            )
            (1): SO2_m_Convolution(
              (fc): Linear(in_features=144, out_features=576, bias=False)
            )
            (2): SO2_m_Convolution(
              (fc): Linear(in_features=96, out_features=384, bias=False)
            )
            (3): SO2_m_Convolution(
              (fc): Linear(in_features=48, out_features=192, bias=False)
            )
          )
        )
        (proj): SO3_LinearV2(in_features=96, out_features=96, lmax=4)
      )
      (norm_2): EquivariantLayerNormArraySphericalHarmonics(lmax=4, num_channels=96, eps=1e-05, std_balance_degrees=True)
      (ffn): FeedForwardNetwork(
        (SO3_grid): (4, 4)
        (so3_linear_1): SO3_LinearV2(in_features=96, out_features=96, lmax=4)
        (scalar_mlp): Sequential(
          (0): Linear(in_features=96, out_features=96, bias=True)
          (1): SiLU()
        )
        (grid_mlp): Sequential(
          (0): Linear(in_features=96, out_features=96, bias=False)
          (1): SiLU()
          (2): Linear(in_features=96, out_features=96, bias=False)
          (3): SiLU()
          (4): Linear(in_features=96, out_features=96, bias=False)
        )
        (so3_linear_2): SO3_LinearV2(in_features=96, out_features=96, lmax=4)
      )
    )
    (1): TransBlockV2(
      (norm_1): EquivariantLayerNormArraySphericalHarmonics(lmax=4, num_channels=96, eps=1e-05, std_balance_degrees=True)
      (ga): SO2EquivariantGraphAttention(
        (SO3_rotation): ModuleList(
          (0): SO3_Rotation(
            (mapping): CoefficientMappingModule(lmax_list=[4], mmax_list=[4])
          )
        )
        (mappingReduced): CoefficientMappingModule(lmax_list=[4], mmax_list=[4])
        (SO3_grid): (4, 4)
        (source_embedding): Embedding(90, 64)
        (target_embedding): Embedding(90, 64)
        (so2_conv_1): SO2_Convolution(
          (mappingReduced): CoefficientMappingModule(lmax_list=[4], mmax_list=[4])
          (fc_m0): Linear(in_features=960, out_features=544, bias=True)
          (so2_m_conv): ModuleList(
            (0): SO2_m_Convolution(
              (fc): Linear(in_features=768, out_features=384, bias=False)
            )
            (1): SO2_m_Convolution(
              (fc): Linear(in_features=576, out_features=288, bias=False)
            )
            (2): SO2_m_Convolution(
              (fc): Linear(in_features=384, out_features=192, bias=False)
            )
            (3): SO2_m_Convolution(
              (fc): Linear(in_features=192, out_features=96, bias=False)
            )
          )
          (rad_func): RadialFunction(
            (net): Sequential(
              (0): Linear(in_features=256, out_features=64, bias=True)
              (1): LayerNorm((64,), eps=1e-05, elementwise_affine=True)
              (2): SiLU()
              (3): Linear(in_features=64, out_features=64, bias=True)
              (4): LayerNorm((64,), eps=1e-05, elementwise_affine=True)
              (5): SiLU()
              (6): Linear(in_features=64, out_features=2880, bias=True)
            )
          )
        )
        (alpha_norm): LayerNorm((64,), eps=1e-05, elementwise_affine=True)
        (alpha_act): SmoothLeakyReLU(negative_slope=0.2)
        (s2_act): SeparableS2Activation(
          (scalar_act): SiLU()
          (s2_act): S2Activation(
            (act): SiLU()
          )
        )
        (so2_conv_2): SO2_Convolution(
          (mappingReduced): CoefficientMappingModule(lmax_list=[4], mmax_list=[4])
          (fc_m0): Linear(in_features=240, out_features=480, bias=True)
          (so2_m_conv): ModuleList(
            (0): SO2_m_Convolution(
              (fc): Linear(in_features=192, out_features=768, bias=False)
            )
            (1): SO2_m_Convolution(
              (fc): Linear(in_features=144, out_features=576, bias=False)
            )
            (2): SO2_m_Convolution(
              (fc): Linear(in_features=96, out_features=384, bias=False)
            )
            (3): SO2_m_Convolution(
              (fc): Linear(in_features=48, out_features=192, bias=False)
            )
          )
        )
        (proj): SO3_LinearV2(in_features=96, out_features=96, lmax=4)
      )
      (norm_2): EquivariantLayerNormArraySphericalHarmonics(lmax=4, num_channels=96, eps=1e-05, std_balance_degrees=True)
      (ffn): FeedForwardNetwork(
        (SO3_grid): (4, 4)
        (so3_linear_1): SO3_LinearV2(in_features=96, out_features=96, lmax=4)
        (scalar_mlp): Sequential(
          (0): Linear(in_features=96, out_features=96, bias=True)
          (1): SiLU()
        )
        (grid_mlp): Sequential(
          (0): Linear(in_features=96, out_features=96, bias=False)
          (1): SiLU()
          (2): Linear(in_features=96, out_features=96, bias=False)
          (3): SiLU()
          (4): Linear(in_features=96, out_features=96, bias=False)
        )
        (so3_linear_2): SO3_LinearV2(in_features=96, out_features=96, lmax=4)
      )
    )
    (2): TransBlockV2(
      (norm_1): EquivariantLayerNormArraySphericalHarmonics(lmax=4, num_channels=96, eps=1e-05, std_balance_degrees=True)
      (ga): SO2EquivariantGraphAttention(
        (SO3_rotation): ModuleList(
          (0): SO3_Rotation(
            (mapping): CoefficientMappingModule(lmax_list=[4], mmax_list=[4])
          )
        )
        (mappingReduced): CoefficientMappingModule(lmax_list=[4], mmax_list=[4])
        (SO3_grid): (4, 4)
        (source_embedding): Embedding(90, 64)
        (target_embedding): Embedding(90, 64)
        (so2_conv_1): SO2_Convolution(
          (mappingReduced): CoefficientMappingModule(lmax_list=[4], mmax_list=[4])
          (fc_m0): Linear(in_features=960, out_features=544, bias=True)
          (so2_m_conv): ModuleList(
            (0): SO2_m_Convolution(
              (fc): Linear(in_features=768, out_features=384, bias=False)
            )
            (1): SO2_m_Convolution(
              (fc): Linear(in_features=576, out_features=288, bias=False)
            )
            (2): SO2_m_Convolution(
              (fc): Linear(in_features=384, out_features=192, bias=False)
            )
            (3): SO2_m_Convolution(
              (fc): Linear(in_features=192, out_features=96, bias=False)
            )
          )
          (rad_func): RadialFunction(
            (net): Sequential(
              (0): Linear(in_features=256, out_features=64, bias=True)
              (1): LayerNorm((64,), eps=1e-05, elementwise_affine=True)
              (2): SiLU()
              (3): Linear(in_features=64, out_features=64, bias=True)
              (4): LayerNorm((64,), eps=1e-05, elementwise_affine=True)
              (5): SiLU()
              (6): Linear(in_features=64, out_features=2880, bias=True)
            )
          )
        )
        (alpha_norm): LayerNorm((64,), eps=1e-05, elementwise_affine=True)
        (alpha_act): SmoothLeakyReLU(negative_slope=0.2)
        (s2_act): SeparableS2Activation(
          (scalar_act): SiLU()
          (s2_act): S2Activation(
            (act): SiLU()
          )
        )
        (so2_conv_2): SO2_Convolution(
          (mappingReduced): CoefficientMappingModule(lmax_list=[4], mmax_list=[4])
          (fc_m0): Linear(in_features=240, out_features=480, bias=True)
          (so2_m_conv): ModuleList(
            (0): SO2_m_Convolution(
              (fc): Linear(in_features=192, out_features=768, bias=False)
            )
            (1): SO2_m_Convolution(
              (fc): Linear(in_features=144, out_features=576, bias=False)
            )
            (2): SO2_m_Convolution(
              (fc): Linear(in_features=96, out_features=384, bias=False)
            )
            (3): SO2_m_Convolution(
              (fc): Linear(in_features=48, out_features=192, bias=False)
            )
          )
        )
        (proj): SO3_LinearV2(in_features=96, out_features=96, lmax=4)
      )
      (norm_2): EquivariantLayerNormArraySphericalHarmonics(lmax=4, num_channels=96, eps=1e-05, std_balance_degrees=True)
      (ffn): FeedForwardNetwork(
        (SO3_grid): (4, 4)
        (so3_linear_1): SO3_LinearV2(in_features=96, out_features=96, lmax=4)
        (scalar_mlp): Sequential(
          (0): Linear(in_features=96, out_features=96, bias=True)
          (1): SiLU()
        )
        (grid_mlp): Sequential(
          (0): Linear(in_features=96, out_features=96, bias=False)
          (1): SiLU()
          (2): Linear(in_features=96, out_features=96, bias=False)
          (3): SiLU()
          (4): Linear(in_features=96, out_features=96, bias=False)
        )
        (so3_linear_2): SO3_LinearV2(in_features=96, out_features=96, lmax=4)
      )
    )
    (3): TransBlockV2(
      (norm_1): EquivariantLayerNormArraySphericalHarmonics(lmax=4, num_channels=96, eps=1e-05, std_balance_degrees=True)
      (ga): SO2EquivariantGraphAttention(
        (SO3_rotation): ModuleList(
          (0): SO3_Rotation(
            (mapping): CoefficientMappingModule(lmax_list=[4], mmax_list=[4])
          )
        )
        (mappingReduced): CoefficientMappingModule(lmax_list=[4], mmax_list=[4])
        (SO3_grid): (4, 4)
        (source_embedding): Embedding(90, 64)
        (target_embedding): Embedding(90, 64)
        (so2_conv_1): SO2_Convolution(
          (mappingReduced): CoefficientMappingModule(lmax_list=[4], mmax_list=[4])
          (fc_m0): Linear(in_features=960, out_features=544, bias=True)
          (so2_m_conv): ModuleList(
            (0): SO2_m_Convolution(
              (fc): Linear(in_features=768, out_features=384, bias=False)
            )
            (1): SO2_m_Convolution(
              (fc): Linear(in_features=576, out_features=288, bias=False)
            )
            (2): SO2_m_Convolution(
              (fc): Linear(in_features=384, out_features=192, bias=False)
            )
            (3): SO2_m_Convolution(
              (fc): Linear(in_features=192, out_features=96, bias=False)
            )
          )
          (rad_func): RadialFunction(
            (net): Sequential(
              (0): Linear(in_features=256, out_features=64, bias=True)
              (1): LayerNorm((64,), eps=1e-05, elementwise_affine=True)
              (2): SiLU()
              (3): Linear(in_features=64, out_features=64, bias=True)
              (4): LayerNorm((64,), eps=1e-05, elementwise_affine=True)
              (5): SiLU()
              (6): Linear(in_features=64, out_features=2880, bias=True)
            )
          )
        )
        (alpha_norm): LayerNorm((64,), eps=1e-05, elementwise_affine=True)
        (alpha_act): SmoothLeakyReLU(negative_slope=0.2)
        (s2_act): SeparableS2Activation(
          (scalar_act): SiLU()
          (s2_act): S2Activation(
            (act): SiLU()
          )
        )
        (so2_conv_2): SO2_Convolution(
          (mappingReduced): CoefficientMappingModule(lmax_list=[4], mmax_list=[4])
          (fc_m0): Linear(in_features=240, out_features=480, bias=True)
          (so2_m_conv): ModuleList(
            (0): SO2_m_Convolution(
              (fc): Linear(in_features=192, out_features=768, bias=False)
            )
            (1): SO2_m_Convolution(
              (fc): Linear(in_features=144, out_features=576, bias=False)
            )
            (2): SO2_m_Convolution(
              (fc): Linear(in_features=96, out_features=384, bias=False)
            )
            (3): SO2_m_Convolution(
              (fc): Linear(in_features=48, out_features=192, bias=False)
            )
          )
        )
        (proj): SO3_LinearV2(in_features=96, out_features=96, lmax=4)
      )
      (norm_2): EquivariantLayerNormArraySphericalHarmonics(lmax=4, num_channels=96, eps=1e-05, std_balance_degrees=True)
      (ffn): FeedForwardNetwork(
        (SO3_grid): (4, 4)
        (so3_linear_1): SO3_LinearV2(in_features=96, out_features=96, lmax=4)
        (scalar_mlp): Sequential(
          (0): Linear(in_features=96, out_features=96, bias=True)
          (1): SiLU()
        )
        (grid_mlp): Sequential(
          (0): Linear(in_features=96, out_features=96, bias=False)
          (1): SiLU()
          (2): Linear(in_features=96, out_features=96, bias=False)
          (3): SiLU()
          (4): Linear(in_features=96, out_features=96, bias=False)
        )
        (so3_linear_2): SO3_LinearV2(in_features=96, out_features=96, lmax=4)
      )
    )
    (4): TransBlockV2(
      (norm_1): EquivariantLayerNormArraySphericalHarmonics(lmax=4, num_channels=96, eps=1e-05, std_balance_degrees=True)
      (ga): SO2EquivariantGraphAttention(
        (SO3_rotation): ModuleList(
          (0): SO3_Rotation(
            (mapping): CoefficientMappingModule(lmax_list=[4], mmax_list=[4])
          )
        )
        (mappingReduced): CoefficientMappingModule(lmax_list=[4], mmax_list=[4])
        (SO3_grid): (4, 4)
        (source_embedding): Embedding(90, 64)
        (target_embedding): Embedding(90, 64)
        (so2_conv_1): SO2_Convolution(
          (mappingReduced): CoefficientMappingModule(lmax_list=[4], mmax_list=[4])
          (fc_m0): Linear(in_features=960, out_features=544, bias=True)
          (so2_m_conv): ModuleList(
            (0): SO2_m_Convolution(
              (fc): Linear(in_features=768, out_features=384, bias=False)
            )
            (1): SO2_m_Convolution(
              (fc): Linear(in_features=576, out_features=288, bias=False)
            )
            (2): SO2_m_Convolution(
              (fc): Linear(in_features=384, out_features=192, bias=False)
            )
            (3): SO2_m_Convolution(
              (fc): Linear(in_features=192, out_features=96, bias=False)
            )
          )
          (rad_func): RadialFunction(
            (net): Sequential(
              (0): Linear(in_features=256, out_features=64, bias=True)
              (1): LayerNorm((64,), eps=1e-05, elementwise_affine=True)
              (2): SiLU()
              (3): Linear(in_features=64, out_features=64, bias=True)
              (4): LayerNorm((64,), eps=1e-05, elementwise_affine=True)
              (5): SiLU()
              (6): Linear(in_features=64, out_features=2880, bias=True)
            )
          )
        )
        (alpha_norm): LayerNorm((64,), eps=1e-05, elementwise_affine=True)
        (alpha_act): SmoothLeakyReLU(negative_slope=0.2)
        (s2_act): SeparableS2Activation(
          (scalar_act): SiLU()
          (s2_act): S2Activation(
            (act): SiLU()
          )
        )
        (so2_conv_2): SO2_Convolution(
          (mappingReduced): CoefficientMappingModule(lmax_list=[4], mmax_list=[4])
          (fc_m0): Linear(in_features=240, out_features=480, bias=True)
          (so2_m_conv): ModuleList(
            (0): SO2_m_Convolution(
              (fc): Linear(in_features=192, out_features=768, bias=False)
            )
            (1): SO2_m_Convolution(
              (fc): Linear(in_features=144, out_features=576, bias=False)
            )
            (2): SO2_m_Convolution(
              (fc): Linear(in_features=96, out_features=384, bias=False)
            )
            (3): SO2_m_Convolution(
              (fc): Linear(in_features=48, out_features=192, bias=False)
            )
          )
        )
        (proj): SO3_LinearV2(in_features=96, out_features=96, lmax=4)
      )
      (norm_2): EquivariantLayerNormArraySphericalHarmonics(lmax=4, num_channels=96, eps=1e-05, std_balance_degrees=True)
      (ffn): FeedForwardNetwork(
        (SO3_grid): (4, 4)
        (so3_linear_1): SO3_LinearV2(in_features=96, out_features=96, lmax=4)
        (scalar_mlp): Sequential(
          (0): Linear(in_features=96, out_features=96, bias=True)
          (1): SiLU()
        )
        (grid_mlp): Sequential(
          (0): Linear(in_features=96, out_features=96, bias=False)
          (1): SiLU()
          (2): Linear(in_features=96, out_features=96, bias=False)
          (3): SiLU()
          (4): Linear(in_features=96, out_features=96, bias=False)
        )
        (so3_linear_2): SO3_LinearV2(in_features=96, out_features=96, lmax=4)
      )
    )
  )
  (norm): EquivariantLayerNormArraySphericalHarmonics(lmax=4, num_channels=96, eps=1e-05, std_balance_degrees=True)
  (energy_block): FeedForwardNetwork(
    (SO3_grid): (4, 4)
    (so3_linear_1): SO3_LinearV2(in_features=96, out_features=96, lmax=4)
    (scalar_mlp): Sequential(
      (0): Linear(in_features=96, out_features=96, bias=True)
      (1): SiLU()
    )
    (grid_mlp): Sequential(
      (0): Linear(in_features=96, out_features=96, bias=False)
      (1): SiLU()
      (2): Linear(in_features=96, out_features=96, bias=False)
      (3): SiLU()
      (4): Linear(in_features=96, out_features=96, bias=False)
    )
    (so3_linear_2): SO3_LinearV2(in_features=96, out_features=1, lmax=4)
  )
)
2025-01-26 23:26:01,139 - logger.py:50 - Number of params: 9478977
2025-01-26 23:26:28,729 - logger.py:50 - Namespace(amp=False, compute_stats=False, config_file='qm9/U0_config.yml', data_path='datasets/qm9', dist_url='env://', distributed=False, drop_path=0.0, feature_type='one_hot', local_rank=0, loss='l1', model_ema=False, model_ema_decay=0.9999, model_ema_force_cpu=False, output_dir='train_results/qm9/U0', pin_mem=True, print_freq=100, rank=0, seed=0, standardize=False, target=7, workers=4, world_size=1)
2025-01-26 23:26:34,953 - logger.py:50 - Training set mean: -76.12300872802734, std:10.329672813415527
2025-01-26 23:26:35,516 - logger.py:50 - EquiformerV2_QM9(
  (sphere_embedding): Embedding(90, 96)
  (distance_expansion): GaussianSmearing()
  (SO3_rotation): ModuleList(
    (0): SO3_Rotation(
      (mapping): CoefficientMappingModule(lmax_list=[4], mmax_list=[4])
    )
  )
  (mappingReduced): CoefficientMappingModule(lmax_list=[4], mmax_list=[4])
  (SO3_grid): (4, 4)
  (edge_degree_embedding): EdgeDegreeEmbedding(
    (SO3_rotation): ModuleList(
      (0): SO3_Rotation(
        (mapping): CoefficientMappingModule(lmax_list=[4], mmax_list=[4])
      )
    )
    (mappingReduced): CoefficientMappingModule(lmax_list=[4], mmax_list=[4])
    (source_embedding): Embedding(90, 64)
    (target_embedding): Embedding(90, 64)
    (rad_func): RadialFunction(
      (net): Sequential(
        (0): Linear(in_features=256, out_features=64, bias=True)
        (1): LayerNorm((64,), eps=1e-05, elementwise_affine=True)
        (2): SiLU()
        (3): Linear(in_features=64, out_features=64, bias=True)
        (4): LayerNorm((64,), eps=1e-05, elementwise_affine=True)
        (5): SiLU()
        (6): Linear(in_features=64, out_features=480, bias=True)
      )
    )
  )
  (blocks): ModuleList(
    (0): TransBlockV2(
      (norm_1): EquivariantLayerNormArraySphericalHarmonics(lmax=4, num_channels=96, eps=1e-05, std_balance_degrees=True)
      (ga): SO2EquivariantGraphAttention(
        (SO3_rotation): ModuleList(
          (0): SO3_Rotation(
            (mapping): CoefficientMappingModule(lmax_list=[4], mmax_list=[4])
          )
        )
        (mappingReduced): CoefficientMappingModule(lmax_list=[4], mmax_list=[4])
        (SO3_grid): (4, 4)
        (source_embedding): Embedding(90, 64)
        (target_embedding): Embedding(90, 64)
        (so2_conv_1): SO2_Convolution(
          (mappingReduced): CoefficientMappingModule(lmax_list=[4], mmax_list=[4])
          (fc_m0): Linear(in_features=960, out_features=544, bias=True)
          (so2_m_conv): ModuleList(
            (0): SO2_m_Convolution(
              (fc): Linear(in_features=768, out_features=384, bias=False)
            )
            (1): SO2_m_Convolution(
              (fc): Linear(in_features=576, out_features=288, bias=False)
            )
            (2): SO2_m_Convolution(
              (fc): Linear(in_features=384, out_features=192, bias=False)
            )
            (3): SO2_m_Convolution(
              (fc): Linear(in_features=192, out_features=96, bias=False)
            )
          )
          (rad_func): RadialFunction(
            (net): Sequential(
              (0): Linear(in_features=256, out_features=64, bias=True)
              (1): LayerNorm((64,), eps=1e-05, elementwise_affine=True)
              (2): SiLU()
              (3): Linear(in_features=64, out_features=64, bias=True)
              (4): LayerNorm((64,), eps=1e-05, elementwise_affine=True)
              (5): SiLU()
              (6): Linear(in_features=64, out_features=2880, bias=True)
            )
          )
        )
        (alpha_norm): LayerNorm((64,), eps=1e-05, elementwise_affine=True)
        (alpha_act): SmoothLeakyReLU(negative_slope=0.2)
        (s2_act): SeparableS2Activation(
          (scalar_act): SiLU()
          (s2_act): S2Activation(
            (act): SiLU()
          )
        )
        (so2_conv_2): SO2_Convolution(
          (mappingReduced): CoefficientMappingModule(lmax_list=[4], mmax_list=[4])
          (fc_m0): Linear(in_features=240, out_features=480, bias=True)
          (so2_m_conv): ModuleList(
            (0): SO2_m_Convolution(
              (fc): Linear(in_features=192, out_features=768, bias=False)
            )
            (1): SO2_m_Convolution(
              (fc): Linear(in_features=144, out_features=576, bias=False)
            )
            (2): SO2_m_Convolution(
              (fc): Linear(in_features=96, out_features=384, bias=False)
            )
            (3): SO2_m_Convolution(
              (fc): Linear(in_features=48, out_features=192, bias=False)
            )
          )
        )
        (proj): SO3_LinearV2(in_features=96, out_features=96, lmax=4)
      )
      (norm_2): EquivariantLayerNormArraySphericalHarmonics(lmax=4, num_channels=96, eps=1e-05, std_balance_degrees=True)
      (ffn): FeedForwardNetwork(
        (SO3_grid): (4, 4)
        (so3_linear_1): SO3_LinearV2(in_features=96, out_features=96, lmax=4)
        (scalar_mlp): Sequential(
          (0): Linear(in_features=96, out_features=96, bias=True)
          (1): SiLU()
        )
        (grid_mlp): Sequential(
          (0): Linear(in_features=96, out_features=96, bias=False)
          (1): SiLU()
          (2): Linear(in_features=96, out_features=96, bias=False)
          (3): SiLU()
          (4): Linear(in_features=96, out_features=96, bias=False)
        )
        (so3_linear_2): SO3_LinearV2(in_features=96, out_features=96, lmax=4)
      )
    )
    (1): TransBlockV2(
      (norm_1): EquivariantLayerNormArraySphericalHarmonics(lmax=4, num_channels=96, eps=1e-05, std_balance_degrees=True)
      (ga): SO2EquivariantGraphAttention(
        (SO3_rotation): ModuleList(
          (0): SO3_Rotation(
            (mapping): CoefficientMappingModule(lmax_list=[4], mmax_list=[4])
          )
        )
        (mappingReduced): CoefficientMappingModule(lmax_list=[4], mmax_list=[4])
        (SO3_grid): (4, 4)
        (source_embedding): Embedding(90, 64)
        (target_embedding): Embedding(90, 64)
        (so2_conv_1): SO2_Convolution(
          (mappingReduced): CoefficientMappingModule(lmax_list=[4], mmax_list=[4])
          (fc_m0): Linear(in_features=960, out_features=544, bias=True)
          (so2_m_conv): ModuleList(
            (0): SO2_m_Convolution(
              (fc): Linear(in_features=768, out_features=384, bias=False)
            )
            (1): SO2_m_Convolution(
              (fc): Linear(in_features=576, out_features=288, bias=False)
            )
            (2): SO2_m_Convolution(
              (fc): Linear(in_features=384, out_features=192, bias=False)
            )
            (3): SO2_m_Convolution(
              (fc): Linear(in_features=192, out_features=96, bias=False)
            )
          )
          (rad_func): RadialFunction(
            (net): Sequential(
              (0): Linear(in_features=256, out_features=64, bias=True)
              (1): LayerNorm((64,), eps=1e-05, elementwise_affine=True)
              (2): SiLU()
              (3): Linear(in_features=64, out_features=64, bias=True)
              (4): LayerNorm((64,), eps=1e-05, elementwise_affine=True)
              (5): SiLU()
              (6): Linear(in_features=64, out_features=2880, bias=True)
            )
          )
        )
        (alpha_norm): LayerNorm((64,), eps=1e-05, elementwise_affine=True)
        (alpha_act): SmoothLeakyReLU(negative_slope=0.2)
        (s2_act): SeparableS2Activation(
          (scalar_act): SiLU()
          (s2_act): S2Activation(
            (act): SiLU()
          )
        )
        (so2_conv_2): SO2_Convolution(
          (mappingReduced): CoefficientMappingModule(lmax_list=[4], mmax_list=[4])
          (fc_m0): Linear(in_features=240, out_features=480, bias=True)
          (so2_m_conv): ModuleList(
            (0): SO2_m_Convolution(
              (fc): Linear(in_features=192, out_features=768, bias=False)
            )
            (1): SO2_m_Convolution(
              (fc): Linear(in_features=144, out_features=576, bias=False)
            )
            (2): SO2_m_Convolution(
              (fc): Linear(in_features=96, out_features=384, bias=False)
            )
            (3): SO2_m_Convolution(
              (fc): Linear(in_features=48, out_features=192, bias=False)
            )
          )
        )
        (proj): SO3_LinearV2(in_features=96, out_features=96, lmax=4)
      )
      (norm_2): EquivariantLayerNormArraySphericalHarmonics(lmax=4, num_channels=96, eps=1e-05, std_balance_degrees=True)
      (ffn): FeedForwardNetwork(
        (SO3_grid): (4, 4)
        (so3_linear_1): SO3_LinearV2(in_features=96, out_features=96, lmax=4)
        (scalar_mlp): Sequential(
          (0): Linear(in_features=96, out_features=96, bias=True)
          (1): SiLU()
        )
        (grid_mlp): Sequential(
          (0): Linear(in_features=96, out_features=96, bias=False)
          (1): SiLU()
          (2): Linear(in_features=96, out_features=96, bias=False)
          (3): SiLU()
          (4): Linear(in_features=96, out_features=96, bias=False)
        )
        (so3_linear_2): SO3_LinearV2(in_features=96, out_features=96, lmax=4)
      )
    )
    (2): TransBlockV2(
      (norm_1): EquivariantLayerNormArraySphericalHarmonics(lmax=4, num_channels=96, eps=1e-05, std_balance_degrees=True)
      (ga): SO2EquivariantGraphAttention(
        (SO3_rotation): ModuleList(
          (0): SO3_Rotation(
            (mapping): CoefficientMappingModule(lmax_list=[4], mmax_list=[4])
          )
        )
        (mappingReduced): CoefficientMappingModule(lmax_list=[4], mmax_list=[4])
        (SO3_grid): (4, 4)
        (source_embedding): Embedding(90, 64)
        (target_embedding): Embedding(90, 64)
        (so2_conv_1): SO2_Convolution(
          (mappingReduced): CoefficientMappingModule(lmax_list=[4], mmax_list=[4])
          (fc_m0): Linear(in_features=960, out_features=544, bias=True)
          (so2_m_conv): ModuleList(
            (0): SO2_m_Convolution(
              (fc): Linear(in_features=768, out_features=384, bias=False)
            )
            (1): SO2_m_Convolution(
              (fc): Linear(in_features=576, out_features=288, bias=False)
            )
            (2): SO2_m_Convolution(
              (fc): Linear(in_features=384, out_features=192, bias=False)
            )
            (3): SO2_m_Convolution(
              (fc): Linear(in_features=192, out_features=96, bias=False)
            )
          )
          (rad_func): RadialFunction(
            (net): Sequential(
              (0): Linear(in_features=256, out_features=64, bias=True)
              (1): LayerNorm((64,), eps=1e-05, elementwise_affine=True)
              (2): SiLU()
              (3): Linear(in_features=64, out_features=64, bias=True)
              (4): LayerNorm((64,), eps=1e-05, elementwise_affine=True)
              (5): SiLU()
              (6): Linear(in_features=64, out_features=2880, bias=True)
            )
          )
        )
        (alpha_norm): LayerNorm((64,), eps=1e-05, elementwise_affine=True)
        (alpha_act): SmoothLeakyReLU(negative_slope=0.2)
        (s2_act): SeparableS2Activation(
          (scalar_act): SiLU()
          (s2_act): S2Activation(
            (act): SiLU()
          )
        )
        (so2_conv_2): SO2_Convolution(
          (mappingReduced): CoefficientMappingModule(lmax_list=[4], mmax_list=[4])
          (fc_m0): Linear(in_features=240, out_features=480, bias=True)
          (so2_m_conv): ModuleList(
            (0): SO2_m_Convolution(
              (fc): Linear(in_features=192, out_features=768, bias=False)
            )
            (1): SO2_m_Convolution(
              (fc): Linear(in_features=144, out_features=576, bias=False)
            )
            (2): SO2_m_Convolution(
              (fc): Linear(in_features=96, out_features=384, bias=False)
            )
            (3): SO2_m_Convolution(
              (fc): Linear(in_features=48, out_features=192, bias=False)
            )
          )
        )
        (proj): SO3_LinearV2(in_features=96, out_features=96, lmax=4)
      )
      (norm_2): EquivariantLayerNormArraySphericalHarmonics(lmax=4, num_channels=96, eps=1e-05, std_balance_degrees=True)
      (ffn): FeedForwardNetwork(
        (SO3_grid): (4, 4)
        (so3_linear_1): SO3_LinearV2(in_features=96, out_features=96, lmax=4)
        (scalar_mlp): Sequential(
          (0): Linear(in_features=96, out_features=96, bias=True)
          (1): SiLU()
        )
        (grid_mlp): Sequential(
          (0): Linear(in_features=96, out_features=96, bias=False)
          (1): SiLU()
          (2): Linear(in_features=96, out_features=96, bias=False)
          (3): SiLU()
          (4): Linear(in_features=96, out_features=96, bias=False)
        )
        (so3_linear_2): SO3_LinearV2(in_features=96, out_features=96, lmax=4)
      )
    )
    (3): TransBlockV2(
      (norm_1): EquivariantLayerNormArraySphericalHarmonics(lmax=4, num_channels=96, eps=1e-05, std_balance_degrees=True)
      (ga): SO2EquivariantGraphAttention(
        (SO3_rotation): ModuleList(
          (0): SO3_Rotation(
            (mapping): CoefficientMappingModule(lmax_list=[4], mmax_list=[4])
          )
        )
        (mappingReduced): CoefficientMappingModule(lmax_list=[4], mmax_list=[4])
        (SO3_grid): (4, 4)
        (source_embedding): Embedding(90, 64)
        (target_embedding): Embedding(90, 64)
        (so2_conv_1): SO2_Convolution(
          (mappingReduced): CoefficientMappingModule(lmax_list=[4], mmax_list=[4])
          (fc_m0): Linear(in_features=960, out_features=544, bias=True)
          (so2_m_conv): ModuleList(
            (0): SO2_m_Convolution(
              (fc): Linear(in_features=768, out_features=384, bias=False)
            )
            (1): SO2_m_Convolution(
              (fc): Linear(in_features=576, out_features=288, bias=False)
            )
            (2): SO2_m_Convolution(
              (fc): Linear(in_features=384, out_features=192, bias=False)
            )
            (3): SO2_m_Convolution(
              (fc): Linear(in_features=192, out_features=96, bias=False)
            )
          )
          (rad_func): RadialFunction(
            (net): Sequential(
              (0): Linear(in_features=256, out_features=64, bias=True)
              (1): LayerNorm((64,), eps=1e-05, elementwise_affine=True)
              (2): SiLU()
              (3): Linear(in_features=64, out_features=64, bias=True)
              (4): LayerNorm((64,), eps=1e-05, elementwise_affine=True)
              (5): SiLU()
              (6): Linear(in_features=64, out_features=2880, bias=True)
            )
          )
        )
        (alpha_norm): LayerNorm((64,), eps=1e-05, elementwise_affine=True)
        (alpha_act): SmoothLeakyReLU(negative_slope=0.2)
        (s2_act): SeparableS2Activation(
          (scalar_act): SiLU()
          (s2_act): S2Activation(
            (act): SiLU()
          )
        )
        (so2_conv_2): SO2_Convolution(
          (mappingReduced): CoefficientMappingModule(lmax_list=[4], mmax_list=[4])
          (fc_m0): Linear(in_features=240, out_features=480, bias=True)
          (so2_m_conv): ModuleList(
            (0): SO2_m_Convolution(
              (fc): Linear(in_features=192, out_features=768, bias=False)
            )
            (1): SO2_m_Convolution(
              (fc): Linear(in_features=144, out_features=576, bias=False)
            )
            (2): SO2_m_Convolution(
              (fc): Linear(in_features=96, out_features=384, bias=False)
            )
            (3): SO2_m_Convolution(
              (fc): Linear(in_features=48, out_features=192, bias=False)
            )
          )
        )
        (proj): SO3_LinearV2(in_features=96, out_features=96, lmax=4)
      )
      (norm_2): EquivariantLayerNormArraySphericalHarmonics(lmax=4, num_channels=96, eps=1e-05, std_balance_degrees=True)
      (ffn): FeedForwardNetwork(
        (SO3_grid): (4, 4)
        (so3_linear_1): SO3_LinearV2(in_features=96, out_features=96, lmax=4)
        (scalar_mlp): Sequential(
          (0): Linear(in_features=96, out_features=96, bias=True)
          (1): SiLU()
        )
        (grid_mlp): Sequential(
          (0): Linear(in_features=96, out_features=96, bias=False)
          (1): SiLU()
          (2): Linear(in_features=96, out_features=96, bias=False)
          (3): SiLU()
          (4): Linear(in_features=96, out_features=96, bias=False)
        )
        (so3_linear_2): SO3_LinearV2(in_features=96, out_features=96, lmax=4)
      )
    )
    (4): TransBlockV2(
      (norm_1): EquivariantLayerNormArraySphericalHarmonics(lmax=4, num_channels=96, eps=1e-05, std_balance_degrees=True)
      (ga): SO2EquivariantGraphAttention(
        (SO3_rotation): ModuleList(
          (0): SO3_Rotation(
            (mapping): CoefficientMappingModule(lmax_list=[4], mmax_list=[4])
          )
        )
        (mappingReduced): CoefficientMappingModule(lmax_list=[4], mmax_list=[4])
        (SO3_grid): (4, 4)
        (source_embedding): Embedding(90, 64)
        (target_embedding): Embedding(90, 64)
        (so2_conv_1): SO2_Convolution(
          (mappingReduced): CoefficientMappingModule(lmax_list=[4], mmax_list=[4])
          (fc_m0): Linear(in_features=960, out_features=544, bias=True)
          (so2_m_conv): ModuleList(
            (0): SO2_m_Convolution(
              (fc): Linear(in_features=768, out_features=384, bias=False)
            )
            (1): SO2_m_Convolution(
              (fc): Linear(in_features=576, out_features=288, bias=False)
            )
            (2): SO2_m_Convolution(
              (fc): Linear(in_features=384, out_features=192, bias=False)
            )
            (3): SO2_m_Convolution(
              (fc): Linear(in_features=192, out_features=96, bias=False)
            )
          )
          (rad_func): RadialFunction(
            (net): Sequential(
              (0): Linear(in_features=256, out_features=64, bias=True)
              (1): LayerNorm((64,), eps=1e-05, elementwise_affine=True)
              (2): SiLU()
              (3): Linear(in_features=64, out_features=64, bias=True)
              (4): LayerNorm((64,), eps=1e-05, elementwise_affine=True)
              (5): SiLU()
              (6): Linear(in_features=64, out_features=2880, bias=True)
            )
          )
        )
        (alpha_norm): LayerNorm((64,), eps=1e-05, elementwise_affine=True)
        (alpha_act): SmoothLeakyReLU(negative_slope=0.2)
        (s2_act): SeparableS2Activation(
          (scalar_act): SiLU()
          (s2_act): S2Activation(
            (act): SiLU()
          )
        )
        (so2_conv_2): SO2_Convolution(
          (mappingReduced): CoefficientMappingModule(lmax_list=[4], mmax_list=[4])
          (fc_m0): Linear(in_features=240, out_features=480, bias=True)
          (so2_m_conv): ModuleList(
            (0): SO2_m_Convolution(
              (fc): Linear(in_features=192, out_features=768, bias=False)
            )
            (1): SO2_m_Convolution(
              (fc): Linear(in_features=144, out_features=576, bias=False)
            )
            (2): SO2_m_Convolution(
              (fc): Linear(in_features=96, out_features=384, bias=False)
            )
            (3): SO2_m_Convolution(
              (fc): Linear(in_features=48, out_features=192, bias=False)
            )
          )
        )
        (proj): SO3_LinearV2(in_features=96, out_features=96, lmax=4)
      )
      (norm_2): EquivariantLayerNormArraySphericalHarmonics(lmax=4, num_channels=96, eps=1e-05, std_balance_degrees=True)
      (ffn): FeedForwardNetwork(
        (SO3_grid): (4, 4)
        (so3_linear_1): SO3_LinearV2(in_features=96, out_features=96, lmax=4)
        (scalar_mlp): Sequential(
          (0): Linear(in_features=96, out_features=96, bias=True)
          (1): SiLU()
        )
        (grid_mlp): Sequential(
          (0): Linear(in_features=96, out_features=96, bias=False)
          (1): SiLU()
          (2): Linear(in_features=96, out_features=96, bias=False)
          (3): SiLU()
          (4): Linear(in_features=96, out_features=96, bias=False)
        )
        (so3_linear_2): SO3_LinearV2(in_features=96, out_features=96, lmax=4)
      )
    )
  )
  (norm): EquivariantLayerNormArraySphericalHarmonics(lmax=4, num_channels=96, eps=1e-05, std_balance_degrees=True)
  (energy_block): FeedForwardNetwork(
    (SO3_grid): (4, 4)
    (so3_linear_1): SO3_LinearV2(in_features=96, out_features=96, lmax=4)
    (scalar_mlp): Sequential(
      (0): Linear(in_features=96, out_features=96, bias=True)
      (1): SiLU()
    )
    (grid_mlp): Sequential(
      (0): Linear(in_features=96, out_features=96, bias=False)
      (1): SiLU()
      (2): Linear(in_features=96, out_features=96, bias=False)
      (3): SiLU()
      (4): Linear(in_features=96, out_features=96, bias=False)
    )
    (so3_linear_2): SO3_LinearV2(in_features=96, out_features=1, lmax=4)
  )
)
2025-01-26 23:26:36,227 - logger.py:50 - Number of params: 9478977
2025-01-26 23:28:04,873 - logger.py:50 - Namespace(amp=False, compute_stats=False, config_file='qm9/U0_config.yml', data_path='datasets/qm9', dist_url='env://', distributed=False, drop_path=0.0, feature_type='one_hot', local_rank=0, loss='l1', model_ema=False, model_ema_decay=0.9999, model_ema_force_cpu=False, output_dir='train_results/qm9/U0', pin_mem=True, print_freq=100, rank=0, seed=0, standardize=False, target=7, workers=4, world_size=1)
2025-01-26 23:28:11,013 - logger.py:50 - Training set mean: -76.12300872802734, std:10.329672813415527
2025-01-26 23:28:11,556 - logger.py:50 - EquiformerV2_QM9(
  (sphere_embedding): Embedding(90, 96)
  (distance_expansion): GaussianSmearing()
  (SO3_rotation): ModuleList(
    (0): SO3_Rotation(
      (mapping): CoefficientMappingModule(lmax_list=[4], mmax_list=[4])
    )
  )
  (mappingReduced): CoefficientMappingModule(lmax_list=[4], mmax_list=[4])
  (SO3_grid): (4, 4)
  (edge_degree_embedding): EdgeDegreeEmbedding(
    (SO3_rotation): ModuleList(
      (0): SO3_Rotation(
        (mapping): CoefficientMappingModule(lmax_list=[4], mmax_list=[4])
      )
    )
    (mappingReduced): CoefficientMappingModule(lmax_list=[4], mmax_list=[4])
    (source_embedding): Embedding(90, 64)
    (target_embedding): Embedding(90, 64)
    (rad_func): RadialFunction(
      (net): Sequential(
        (0): Linear(in_features=256, out_features=64, bias=True)
        (1): LayerNorm((64,), eps=1e-05, elementwise_affine=True)
        (2): SiLU()
        (3): Linear(in_features=64, out_features=64, bias=True)
        (4): LayerNorm((64,), eps=1e-05, elementwise_affine=True)
        (5): SiLU()
        (6): Linear(in_features=64, out_features=480, bias=True)
      )
    )
  )
  (blocks): ModuleList(
    (0): TransBlockV2(
      (norm_1): EquivariantLayerNormArraySphericalHarmonics(lmax=4, num_channels=96, eps=1e-05, std_balance_degrees=True)
      (ga): SO2EquivariantGraphAttention(
        (SO3_rotation): ModuleList(
          (0): SO3_Rotation(
            (mapping): CoefficientMappingModule(lmax_list=[4], mmax_list=[4])
          )
        )
        (mappingReduced): CoefficientMappingModule(lmax_list=[4], mmax_list=[4])
        (SO3_grid): (4, 4)
        (source_embedding): Embedding(90, 64)
        (target_embedding): Embedding(90, 64)
        (so2_conv_1): SO2_Convolution(
          (mappingReduced): CoefficientMappingModule(lmax_list=[4], mmax_list=[4])
          (fc_m0): Linear(in_features=960, out_features=544, bias=True)
          (so2_m_conv): ModuleList(
            (0): SO2_m_Convolution(
              (fc): Linear(in_features=768, out_features=384, bias=False)
            )
            (1): SO2_m_Convolution(
              (fc): Linear(in_features=576, out_features=288, bias=False)
            )
            (2): SO2_m_Convolution(
              (fc): Linear(in_features=384, out_features=192, bias=False)
            )
            (3): SO2_m_Convolution(
              (fc): Linear(in_features=192, out_features=96, bias=False)
            )
          )
          (rad_func): RadialFunction(
            (net): Sequential(
              (0): Linear(in_features=256, out_features=64, bias=True)
              (1): LayerNorm((64,), eps=1e-05, elementwise_affine=True)
              (2): SiLU()
              (3): Linear(in_features=64, out_features=64, bias=True)
              (4): LayerNorm((64,), eps=1e-05, elementwise_affine=True)
              (5): SiLU()
              (6): Linear(in_features=64, out_features=2880, bias=True)
            )
          )
        )
        (alpha_norm): LayerNorm((64,), eps=1e-05, elementwise_affine=True)
        (alpha_act): SmoothLeakyReLU(negative_slope=0.2)
        (s2_act): SeparableS2Activation(
          (scalar_act): SiLU()
          (s2_act): S2Activation(
            (act): SiLU()
          )
        )
        (so2_conv_2): SO2_Convolution(
          (mappingReduced): CoefficientMappingModule(lmax_list=[4], mmax_list=[4])
          (fc_m0): Linear(in_features=240, out_features=480, bias=True)
          (so2_m_conv): ModuleList(
            (0): SO2_m_Convolution(
              (fc): Linear(in_features=192, out_features=768, bias=False)
            )
            (1): SO2_m_Convolution(
              (fc): Linear(in_features=144, out_features=576, bias=False)
            )
            (2): SO2_m_Convolution(
              (fc): Linear(in_features=96, out_features=384, bias=False)
            )
            (3): SO2_m_Convolution(
              (fc): Linear(in_features=48, out_features=192, bias=False)
            )
          )
        )
        (proj): SO3_LinearV2(in_features=96, out_features=96, lmax=4)
      )
      (norm_2): EquivariantLayerNormArraySphericalHarmonics(lmax=4, num_channels=96, eps=1e-05, std_balance_degrees=True)
      (ffn): FeedForwardNetwork(
        (SO3_grid): (4, 4)
        (so3_linear_1): SO3_LinearV2(in_features=96, out_features=96, lmax=4)
        (scalar_mlp): Sequential(
          (0): Linear(in_features=96, out_features=96, bias=True)
          (1): SiLU()
        )
        (grid_mlp): Sequential(
          (0): Linear(in_features=96, out_features=96, bias=False)
          (1): SiLU()
          (2): Linear(in_features=96, out_features=96, bias=False)
          (3): SiLU()
          (4): Linear(in_features=96, out_features=96, bias=False)
        )
        (so3_linear_2): SO3_LinearV2(in_features=96, out_features=96, lmax=4)
      )
    )
    (1): TransBlockV2(
      (norm_1): EquivariantLayerNormArraySphericalHarmonics(lmax=4, num_channels=96, eps=1e-05, std_balance_degrees=True)
      (ga): SO2EquivariantGraphAttention(
        (SO3_rotation): ModuleList(
          (0): SO3_Rotation(
            (mapping): CoefficientMappingModule(lmax_list=[4], mmax_list=[4])
          )
        )
        (mappingReduced): CoefficientMappingModule(lmax_list=[4], mmax_list=[4])
        (SO3_grid): (4, 4)
        (source_embedding): Embedding(90, 64)
        (target_embedding): Embedding(90, 64)
        (so2_conv_1): SO2_Convolution(
          (mappingReduced): CoefficientMappingModule(lmax_list=[4], mmax_list=[4])
          (fc_m0): Linear(in_features=960, out_features=544, bias=True)
          (so2_m_conv): ModuleList(
            (0): SO2_m_Convolution(
              (fc): Linear(in_features=768, out_features=384, bias=False)
            )
            (1): SO2_m_Convolution(
              (fc): Linear(in_features=576, out_features=288, bias=False)
            )
            (2): SO2_m_Convolution(
              (fc): Linear(in_features=384, out_features=192, bias=False)
            )
            (3): SO2_m_Convolution(
              (fc): Linear(in_features=192, out_features=96, bias=False)
            )
          )
          (rad_func): RadialFunction(
            (net): Sequential(
              (0): Linear(in_features=256, out_features=64, bias=True)
              (1): LayerNorm((64,), eps=1e-05, elementwise_affine=True)
              (2): SiLU()
              (3): Linear(in_features=64, out_features=64, bias=True)
              (4): LayerNorm((64,), eps=1e-05, elementwise_affine=True)
              (5): SiLU()
              (6): Linear(in_features=64, out_features=2880, bias=True)
            )
          )
        )
        (alpha_norm): LayerNorm((64,), eps=1e-05, elementwise_affine=True)
        (alpha_act): SmoothLeakyReLU(negative_slope=0.2)
        (s2_act): SeparableS2Activation(
          (scalar_act): SiLU()
          (s2_act): S2Activation(
            (act): SiLU()
          )
        )
        (so2_conv_2): SO2_Convolution(
          (mappingReduced): CoefficientMappingModule(lmax_list=[4], mmax_list=[4])
          (fc_m0): Linear(in_features=240, out_features=480, bias=True)
          (so2_m_conv): ModuleList(
            (0): SO2_m_Convolution(
              (fc): Linear(in_features=192, out_features=768, bias=False)
            )
            (1): SO2_m_Convolution(
              (fc): Linear(in_features=144, out_features=576, bias=False)
            )
            (2): SO2_m_Convolution(
              (fc): Linear(in_features=96, out_features=384, bias=False)
            )
            (3): SO2_m_Convolution(
              (fc): Linear(in_features=48, out_features=192, bias=False)
            )
          )
        )
        (proj): SO3_LinearV2(in_features=96, out_features=96, lmax=4)
      )
      (norm_2): EquivariantLayerNormArraySphericalHarmonics(lmax=4, num_channels=96, eps=1e-05, std_balance_degrees=True)
      (ffn): FeedForwardNetwork(
        (SO3_grid): (4, 4)
        (so3_linear_1): SO3_LinearV2(in_features=96, out_features=96, lmax=4)
        (scalar_mlp): Sequential(
          (0): Linear(in_features=96, out_features=96, bias=True)
          (1): SiLU()
        )
        (grid_mlp): Sequential(
          (0): Linear(in_features=96, out_features=96, bias=False)
          (1): SiLU()
          (2): Linear(in_features=96, out_features=96, bias=False)
          (3): SiLU()
          (4): Linear(in_features=96, out_features=96, bias=False)
        )
        (so3_linear_2): SO3_LinearV2(in_features=96, out_features=96, lmax=4)
      )
    )
    (2): TransBlockV2(
      (norm_1): EquivariantLayerNormArraySphericalHarmonics(lmax=4, num_channels=96, eps=1e-05, std_balance_degrees=True)
      (ga): SO2EquivariantGraphAttention(
        (SO3_rotation): ModuleList(
          (0): SO3_Rotation(
            (mapping): CoefficientMappingModule(lmax_list=[4], mmax_list=[4])
          )
        )
        (mappingReduced): CoefficientMappingModule(lmax_list=[4], mmax_list=[4])
        (SO3_grid): (4, 4)
        (source_embedding): Embedding(90, 64)
        (target_embedding): Embedding(90, 64)
        (so2_conv_1): SO2_Convolution(
          (mappingReduced): CoefficientMappingModule(lmax_list=[4], mmax_list=[4])
          (fc_m0): Linear(in_features=960, out_features=544, bias=True)
          (so2_m_conv): ModuleList(
            (0): SO2_m_Convolution(
              (fc): Linear(in_features=768, out_features=384, bias=False)
            )
            (1): SO2_m_Convolution(
              (fc): Linear(in_features=576, out_features=288, bias=False)
            )
            (2): SO2_m_Convolution(
              (fc): Linear(in_features=384, out_features=192, bias=False)
            )
            (3): SO2_m_Convolution(
              (fc): Linear(in_features=192, out_features=96, bias=False)
            )
          )
          (rad_func): RadialFunction(
            (net): Sequential(
              (0): Linear(in_features=256, out_features=64, bias=True)
              (1): LayerNorm((64,), eps=1e-05, elementwise_affine=True)
              (2): SiLU()
              (3): Linear(in_features=64, out_features=64, bias=True)
              (4): LayerNorm((64,), eps=1e-05, elementwise_affine=True)
              (5): SiLU()
              (6): Linear(in_features=64, out_features=2880, bias=True)
            )
          )
        )
        (alpha_norm): LayerNorm((64,), eps=1e-05, elementwise_affine=True)
        (alpha_act): SmoothLeakyReLU(negative_slope=0.2)
        (s2_act): SeparableS2Activation(
          (scalar_act): SiLU()
          (s2_act): S2Activation(
            (act): SiLU()
          )
        )
        (so2_conv_2): SO2_Convolution(
          (mappingReduced): CoefficientMappingModule(lmax_list=[4], mmax_list=[4])
          (fc_m0): Linear(in_features=240, out_features=480, bias=True)
          (so2_m_conv): ModuleList(
            (0): SO2_m_Convolution(
              (fc): Linear(in_features=192, out_features=768, bias=False)
            )
            (1): SO2_m_Convolution(
              (fc): Linear(in_features=144, out_features=576, bias=False)
            )
            (2): SO2_m_Convolution(
              (fc): Linear(in_features=96, out_features=384, bias=False)
            )
            (3): SO2_m_Convolution(
              (fc): Linear(in_features=48, out_features=192, bias=False)
            )
          )
        )
        (proj): SO3_LinearV2(in_features=96, out_features=96, lmax=4)
      )
      (norm_2): EquivariantLayerNormArraySphericalHarmonics(lmax=4, num_channels=96, eps=1e-05, std_balance_degrees=True)
      (ffn): FeedForwardNetwork(
        (SO3_grid): (4, 4)
        (so3_linear_1): SO3_LinearV2(in_features=96, out_features=96, lmax=4)
        (scalar_mlp): Sequential(
          (0): Linear(in_features=96, out_features=96, bias=True)
          (1): SiLU()
        )
        (grid_mlp): Sequential(
          (0): Linear(in_features=96, out_features=96, bias=False)
          (1): SiLU()
          (2): Linear(in_features=96, out_features=96, bias=False)
          (3): SiLU()
          (4): Linear(in_features=96, out_features=96, bias=False)
        )
        (so3_linear_2): SO3_LinearV2(in_features=96, out_features=96, lmax=4)
      )
    )
    (3): TransBlockV2(
      (norm_1): EquivariantLayerNormArraySphericalHarmonics(lmax=4, num_channels=96, eps=1e-05, std_balance_degrees=True)
      (ga): SO2EquivariantGraphAttention(
        (SO3_rotation): ModuleList(
          (0): SO3_Rotation(
            (mapping): CoefficientMappingModule(lmax_list=[4], mmax_list=[4])
          )
        )
        (mappingReduced): CoefficientMappingModule(lmax_list=[4], mmax_list=[4])
        (SO3_grid): (4, 4)
        (source_embedding): Embedding(90, 64)
        (target_embedding): Embedding(90, 64)
        (so2_conv_1): SO2_Convolution(
          (mappingReduced): CoefficientMappingModule(lmax_list=[4], mmax_list=[4])
          (fc_m0): Linear(in_features=960, out_features=544, bias=True)
          (so2_m_conv): ModuleList(
            (0): SO2_m_Convolution(
              (fc): Linear(in_features=768, out_features=384, bias=False)
            )
            (1): SO2_m_Convolution(
              (fc): Linear(in_features=576, out_features=288, bias=False)
            )
            (2): SO2_m_Convolution(
              (fc): Linear(in_features=384, out_features=192, bias=False)
            )
            (3): SO2_m_Convolution(
              (fc): Linear(in_features=192, out_features=96, bias=False)
            )
          )
          (rad_func): RadialFunction(
            (net): Sequential(
              (0): Linear(in_features=256, out_features=64, bias=True)
              (1): LayerNorm((64,), eps=1e-05, elementwise_affine=True)
              (2): SiLU()
              (3): Linear(in_features=64, out_features=64, bias=True)
              (4): LayerNorm((64,), eps=1e-05, elementwise_affine=True)
              (5): SiLU()
              (6): Linear(in_features=64, out_features=2880, bias=True)
            )
          )
        )
        (alpha_norm): LayerNorm((64,), eps=1e-05, elementwise_affine=True)
        (alpha_act): SmoothLeakyReLU(negative_slope=0.2)
        (s2_act): SeparableS2Activation(
          (scalar_act): SiLU()
          (s2_act): S2Activation(
            (act): SiLU()
          )
        )
        (so2_conv_2): SO2_Convolution(
          (mappingReduced): CoefficientMappingModule(lmax_list=[4], mmax_list=[4])
          (fc_m0): Linear(in_features=240, out_features=480, bias=True)
          (so2_m_conv): ModuleList(
            (0): SO2_m_Convolution(
              (fc): Linear(in_features=192, out_features=768, bias=False)
            )
            (1): SO2_m_Convolution(
              (fc): Linear(in_features=144, out_features=576, bias=False)
            )
            (2): SO2_m_Convolution(
              (fc): Linear(in_features=96, out_features=384, bias=False)
            )
            (3): SO2_m_Convolution(
              (fc): Linear(in_features=48, out_features=192, bias=False)
            )
          )
        )
        (proj): SO3_LinearV2(in_features=96, out_features=96, lmax=4)
      )
      (norm_2): EquivariantLayerNormArraySphericalHarmonics(lmax=4, num_channels=96, eps=1e-05, std_balance_degrees=True)
      (ffn): FeedForwardNetwork(
        (SO3_grid): (4, 4)
        (so3_linear_1): SO3_LinearV2(in_features=96, out_features=96, lmax=4)
        (scalar_mlp): Sequential(
          (0): Linear(in_features=96, out_features=96, bias=True)
          (1): SiLU()
        )
        (grid_mlp): Sequential(
          (0): Linear(in_features=96, out_features=96, bias=False)
          (1): SiLU()
          (2): Linear(in_features=96, out_features=96, bias=False)
          (3): SiLU()
          (4): Linear(in_features=96, out_features=96, bias=False)
        )
        (so3_linear_2): SO3_LinearV2(in_features=96, out_features=96, lmax=4)
      )
    )
    (4): TransBlockV2(
      (norm_1): EquivariantLayerNormArraySphericalHarmonics(lmax=4, num_channels=96, eps=1e-05, std_balance_degrees=True)
      (ga): SO2EquivariantGraphAttention(
        (SO3_rotation): ModuleList(
          (0): SO3_Rotation(
            (mapping): CoefficientMappingModule(lmax_list=[4], mmax_list=[4])
          )
        )
        (mappingReduced): CoefficientMappingModule(lmax_list=[4], mmax_list=[4])
        (SO3_grid): (4, 4)
        (source_embedding): Embedding(90, 64)
        (target_embedding): Embedding(90, 64)
        (so2_conv_1): SO2_Convolution(
          (mappingReduced): CoefficientMappingModule(lmax_list=[4], mmax_list=[4])
          (fc_m0): Linear(in_features=960, out_features=544, bias=True)
          (so2_m_conv): ModuleList(
            (0): SO2_m_Convolution(
              (fc): Linear(in_features=768, out_features=384, bias=False)
            )
            (1): SO2_m_Convolution(
              (fc): Linear(in_features=576, out_features=288, bias=False)
            )
            (2): SO2_m_Convolution(
              (fc): Linear(in_features=384, out_features=192, bias=False)
            )
            (3): SO2_m_Convolution(
              (fc): Linear(in_features=192, out_features=96, bias=False)
            )
          )
          (rad_func): RadialFunction(
            (net): Sequential(
              (0): Linear(in_features=256, out_features=64, bias=True)
              (1): LayerNorm((64,), eps=1e-05, elementwise_affine=True)
              (2): SiLU()
              (3): Linear(in_features=64, out_features=64, bias=True)
              (4): LayerNorm((64,), eps=1e-05, elementwise_affine=True)
              (5): SiLU()
              (6): Linear(in_features=64, out_features=2880, bias=True)
            )
          )
        )
        (alpha_norm): LayerNorm((64,), eps=1e-05, elementwise_affine=True)
        (alpha_act): SmoothLeakyReLU(negative_slope=0.2)
        (s2_act): SeparableS2Activation(
          (scalar_act): SiLU()
          (s2_act): S2Activation(
            (act): SiLU()
          )
        )
        (so2_conv_2): SO2_Convolution(
          (mappingReduced): CoefficientMappingModule(lmax_list=[4], mmax_list=[4])
          (fc_m0): Linear(in_features=240, out_features=480, bias=True)
          (so2_m_conv): ModuleList(
            (0): SO2_m_Convolution(
              (fc): Linear(in_features=192, out_features=768, bias=False)
            )
            (1): SO2_m_Convolution(
              (fc): Linear(in_features=144, out_features=576, bias=False)
            )
            (2): SO2_m_Convolution(
              (fc): Linear(in_features=96, out_features=384, bias=False)
            )
            (3): SO2_m_Convolution(
              (fc): Linear(in_features=48, out_features=192, bias=False)
            )
          )
        )
        (proj): SO3_LinearV2(in_features=96, out_features=96, lmax=4)
      )
      (norm_2): EquivariantLayerNormArraySphericalHarmonics(lmax=4, num_channels=96, eps=1e-05, std_balance_degrees=True)
      (ffn): FeedForwardNetwork(
        (SO3_grid): (4, 4)
        (so3_linear_1): SO3_LinearV2(in_features=96, out_features=96, lmax=4)
        (scalar_mlp): Sequential(
          (0): Linear(in_features=96, out_features=96, bias=True)
          (1): SiLU()
        )
        (grid_mlp): Sequential(
          (0): Linear(in_features=96, out_features=96, bias=False)
          (1): SiLU()
          (2): Linear(in_features=96, out_features=96, bias=False)
          (3): SiLU()
          (4): Linear(in_features=96, out_features=96, bias=False)
        )
        (so3_linear_2): SO3_LinearV2(in_features=96, out_features=96, lmax=4)
      )
    )
  )
  (norm): EquivariantLayerNormArraySphericalHarmonics(lmax=4, num_channels=96, eps=1e-05, std_balance_degrees=True)
  (energy_block): FeedForwardNetwork(
    (SO3_grid): (4, 4)
    (so3_linear_1): SO3_LinearV2(in_features=96, out_features=96, lmax=4)
    (scalar_mlp): Sequential(
      (0): Linear(in_features=96, out_features=96, bias=True)
      (1): SiLU()
    )
    (grid_mlp): Sequential(
      (0): Linear(in_features=96, out_features=96, bias=False)
      (1): SiLU()
      (2): Linear(in_features=96, out_features=96, bias=False)
      (3): SiLU()
      (4): Linear(in_features=96, out_features=96, bias=False)
    )
    (so3_linear_2): SO3_LinearV2(in_features=96, out_features=1, lmax=4)
  )
)
2025-01-26 23:28:12,251 - logger.py:50 - Number of params: 9478977
2025-01-26 23:28:34,365 - logger.py:50 - Namespace(amp=False, compute_stats=False, config_file='qm9/U0_config.yml', data_path='datasets/qm9', dist_url='env://', distributed=False, drop_path=0.0, feature_type='one_hot', local_rank=0, loss='l1', model_ema=False, model_ema_decay=0.9999, model_ema_force_cpu=False, output_dir='train_results/qm9/U0', pin_mem=True, print_freq=100, rank=0, seed=0, standardize=False, target=7, workers=4, world_size=1)
2025-01-26 23:28:40,395 - logger.py:50 - Training set mean: -76.12300872802734, std:10.329672813415527
2025-01-26 23:28:40,944 - logger.py:50 - EquiformerV2_QM9(
  (sphere_embedding): Embedding(90, 96)
  (distance_expansion): GaussianSmearing()
  (SO3_rotation): ModuleList(
    (0): SO3_Rotation(
      (mapping): CoefficientMappingModule(lmax_list=[4], mmax_list=[4])
    )
  )
  (mappingReduced): CoefficientMappingModule(lmax_list=[4], mmax_list=[4])
  (SO3_grid): (4, 4)
  (edge_degree_embedding): EdgeDegreeEmbedding(
    (SO3_rotation): ModuleList(
      (0): SO3_Rotation(
        (mapping): CoefficientMappingModule(lmax_list=[4], mmax_list=[4])
      )
    )
    (mappingReduced): CoefficientMappingModule(lmax_list=[4], mmax_list=[4])
    (source_embedding): Embedding(90, 64)
    (target_embedding): Embedding(90, 64)
    (rad_func): RadialFunction(
      (net): Sequential(
        (0): Linear(in_features=256, out_features=64, bias=True)
        (1): LayerNorm((64,), eps=1e-05, elementwise_affine=True)
        (2): SiLU()
        (3): Linear(in_features=64, out_features=64, bias=True)
        (4): LayerNorm((64,), eps=1e-05, elementwise_affine=True)
        (5): SiLU()
        (6): Linear(in_features=64, out_features=480, bias=True)
      )
    )
  )
  (blocks): ModuleList(
    (0): TransBlockV2(
      (norm_1): EquivariantLayerNormArraySphericalHarmonics(lmax=4, num_channels=96, eps=1e-05, std_balance_degrees=True)
      (ga): SO2EquivariantGraphAttention(
        (SO3_rotation): ModuleList(
          (0): SO3_Rotation(
            (mapping): CoefficientMappingModule(lmax_list=[4], mmax_list=[4])
          )
        )
        (mappingReduced): CoefficientMappingModule(lmax_list=[4], mmax_list=[4])
        (SO3_grid): (4, 4)
        (source_embedding): Embedding(90, 64)
        (target_embedding): Embedding(90, 64)
        (so2_conv_1): SO2_Convolution(
          (mappingReduced): CoefficientMappingModule(lmax_list=[4], mmax_list=[4])
          (fc_m0): Linear(in_features=960, out_features=544, bias=True)
          (so2_m_conv): ModuleList(
            (0): SO2_m_Convolution(
              (fc): Linear(in_features=768, out_features=384, bias=False)
            )
            (1): SO2_m_Convolution(
              (fc): Linear(in_features=576, out_features=288, bias=False)
            )
            (2): SO2_m_Convolution(
              (fc): Linear(in_features=384, out_features=192, bias=False)
            )
            (3): SO2_m_Convolution(
              (fc): Linear(in_features=192, out_features=96, bias=False)
            )
          )
          (rad_func): RadialFunction(
            (net): Sequential(
              (0): Linear(in_features=256, out_features=64, bias=True)
              (1): LayerNorm((64,), eps=1e-05, elementwise_affine=True)
              (2): SiLU()
              (3): Linear(in_features=64, out_features=64, bias=True)
              (4): LayerNorm((64,), eps=1e-05, elementwise_affine=True)
              (5): SiLU()
              (6): Linear(in_features=64, out_features=2880, bias=True)
            )
          )
        )
        (alpha_norm): LayerNorm((64,), eps=1e-05, elementwise_affine=True)
        (alpha_act): SmoothLeakyReLU(negative_slope=0.2)
        (s2_act): SeparableS2Activation(
          (scalar_act): SiLU()
          (s2_act): S2Activation(
            (act): SiLU()
          )
        )
        (so2_conv_2): SO2_Convolution(
          (mappingReduced): CoefficientMappingModule(lmax_list=[4], mmax_list=[4])
          (fc_m0): Linear(in_features=240, out_features=480, bias=True)
          (so2_m_conv): ModuleList(
            (0): SO2_m_Convolution(
              (fc): Linear(in_features=192, out_features=768, bias=False)
            )
            (1): SO2_m_Convolution(
              (fc): Linear(in_features=144, out_features=576, bias=False)
            )
            (2): SO2_m_Convolution(
              (fc): Linear(in_features=96, out_features=384, bias=False)
            )
            (3): SO2_m_Convolution(
              (fc): Linear(in_features=48, out_features=192, bias=False)
            )
          )
        )
        (proj): SO3_LinearV2(in_features=96, out_features=96, lmax=4)
      )
      (norm_2): EquivariantLayerNormArraySphericalHarmonics(lmax=4, num_channels=96, eps=1e-05, std_balance_degrees=True)
      (ffn): FeedForwardNetwork(
        (SO3_grid): (4, 4)
        (so3_linear_1): SO3_LinearV2(in_features=96, out_features=96, lmax=4)
        (scalar_mlp): Sequential(
          (0): Linear(in_features=96, out_features=96, bias=True)
          (1): SiLU()
        )
        (grid_mlp): Sequential(
          (0): Linear(in_features=96, out_features=96, bias=False)
          (1): SiLU()
          (2): Linear(in_features=96, out_features=96, bias=False)
          (3): SiLU()
          (4): Linear(in_features=96, out_features=96, bias=False)
        )
        (so3_linear_2): SO3_LinearV2(in_features=96, out_features=96, lmax=4)
      )
    )
    (1): TransBlockV2(
      (norm_1): EquivariantLayerNormArraySphericalHarmonics(lmax=4, num_channels=96, eps=1e-05, std_balance_degrees=True)
      (ga): SO2EquivariantGraphAttention(
        (SO3_rotation): ModuleList(
          (0): SO3_Rotation(
            (mapping): CoefficientMappingModule(lmax_list=[4], mmax_list=[4])
          )
        )
        (mappingReduced): CoefficientMappingModule(lmax_list=[4], mmax_list=[4])
        (SO3_grid): (4, 4)
        (source_embedding): Embedding(90, 64)
        (target_embedding): Embedding(90, 64)
        (so2_conv_1): SO2_Convolution(
          (mappingReduced): CoefficientMappingModule(lmax_list=[4], mmax_list=[4])
          (fc_m0): Linear(in_features=960, out_features=544, bias=True)
          (so2_m_conv): ModuleList(
            (0): SO2_m_Convolution(
              (fc): Linear(in_features=768, out_features=384, bias=False)
            )
            (1): SO2_m_Convolution(
              (fc): Linear(in_features=576, out_features=288, bias=False)
            )
            (2): SO2_m_Convolution(
              (fc): Linear(in_features=384, out_features=192, bias=False)
            )
            (3): SO2_m_Convolution(
              (fc): Linear(in_features=192, out_features=96, bias=False)
            )
          )
          (rad_func): RadialFunction(
            (net): Sequential(
              (0): Linear(in_features=256, out_features=64, bias=True)
              (1): LayerNorm((64,), eps=1e-05, elementwise_affine=True)
              (2): SiLU()
              (3): Linear(in_features=64, out_features=64, bias=True)
              (4): LayerNorm((64,), eps=1e-05, elementwise_affine=True)
              (5): SiLU()
              (6): Linear(in_features=64, out_features=2880, bias=True)
            )
          )
        )
        (alpha_norm): LayerNorm((64,), eps=1e-05, elementwise_affine=True)
        (alpha_act): SmoothLeakyReLU(negative_slope=0.2)
        (s2_act): SeparableS2Activation(
          (scalar_act): SiLU()
          (s2_act): S2Activation(
            (act): SiLU()
          )
        )
        (so2_conv_2): SO2_Convolution(
          (mappingReduced): CoefficientMappingModule(lmax_list=[4], mmax_list=[4])
          (fc_m0): Linear(in_features=240, out_features=480, bias=True)
          (so2_m_conv): ModuleList(
            (0): SO2_m_Convolution(
              (fc): Linear(in_features=192, out_features=768, bias=False)
            )
            (1): SO2_m_Convolution(
              (fc): Linear(in_features=144, out_features=576, bias=False)
            )
            (2): SO2_m_Convolution(
              (fc): Linear(in_features=96, out_features=384, bias=False)
            )
            (3): SO2_m_Convolution(
              (fc): Linear(in_features=48, out_features=192, bias=False)
            )
          )
        )
        (proj): SO3_LinearV2(in_features=96, out_features=96, lmax=4)
      )
      (norm_2): EquivariantLayerNormArraySphericalHarmonics(lmax=4, num_channels=96, eps=1e-05, std_balance_degrees=True)
      (ffn): FeedForwardNetwork(
        (SO3_grid): (4, 4)
        (so3_linear_1): SO3_LinearV2(in_features=96, out_features=96, lmax=4)
        (scalar_mlp): Sequential(
          (0): Linear(in_features=96, out_features=96, bias=True)
          (1): SiLU()
        )
        (grid_mlp): Sequential(
          (0): Linear(in_features=96, out_features=96, bias=False)
          (1): SiLU()
          (2): Linear(in_features=96, out_features=96, bias=False)
          (3): SiLU()
          (4): Linear(in_features=96, out_features=96, bias=False)
        )
        (so3_linear_2): SO3_LinearV2(in_features=96, out_features=96, lmax=4)
      )
    )
    (2): TransBlockV2(
      (norm_1): EquivariantLayerNormArraySphericalHarmonics(lmax=4, num_channels=96, eps=1e-05, std_balance_degrees=True)
      (ga): SO2EquivariantGraphAttention(
        (SO3_rotation): ModuleList(
          (0): SO3_Rotation(
            (mapping): CoefficientMappingModule(lmax_list=[4], mmax_list=[4])
          )
        )
        (mappingReduced): CoefficientMappingModule(lmax_list=[4], mmax_list=[4])
        (SO3_grid): (4, 4)
        (source_embedding): Embedding(90, 64)
        (target_embedding): Embedding(90, 64)
        (so2_conv_1): SO2_Convolution(
          (mappingReduced): CoefficientMappingModule(lmax_list=[4], mmax_list=[4])
          (fc_m0): Linear(in_features=960, out_features=544, bias=True)
          (so2_m_conv): ModuleList(
            (0): SO2_m_Convolution(
              (fc): Linear(in_features=768, out_features=384, bias=False)
            )
            (1): SO2_m_Convolution(
              (fc): Linear(in_features=576, out_features=288, bias=False)
            )
            (2): SO2_m_Convolution(
              (fc): Linear(in_features=384, out_features=192, bias=False)
            )
            (3): SO2_m_Convolution(
              (fc): Linear(in_features=192, out_features=96, bias=False)
            )
          )
          (rad_func): RadialFunction(
            (net): Sequential(
              (0): Linear(in_features=256, out_features=64, bias=True)
              (1): LayerNorm((64,), eps=1e-05, elementwise_affine=True)
              (2): SiLU()
              (3): Linear(in_features=64, out_features=64, bias=True)
              (4): LayerNorm((64,), eps=1e-05, elementwise_affine=True)
              (5): SiLU()
              (6): Linear(in_features=64, out_features=2880, bias=True)
            )
          )
        )
        (alpha_norm): LayerNorm((64,), eps=1e-05, elementwise_affine=True)
        (alpha_act): SmoothLeakyReLU(negative_slope=0.2)
        (s2_act): SeparableS2Activation(
          (scalar_act): SiLU()
          (s2_act): S2Activation(
            (act): SiLU()
          )
        )
        (so2_conv_2): SO2_Convolution(
          (mappingReduced): CoefficientMappingModule(lmax_list=[4], mmax_list=[4])
          (fc_m0): Linear(in_features=240, out_features=480, bias=True)
          (so2_m_conv): ModuleList(
            (0): SO2_m_Convolution(
              (fc): Linear(in_features=192, out_features=768, bias=False)
            )
            (1): SO2_m_Convolution(
              (fc): Linear(in_features=144, out_features=576, bias=False)
            )
            (2): SO2_m_Convolution(
              (fc): Linear(in_features=96, out_features=384, bias=False)
            )
            (3): SO2_m_Convolution(
              (fc): Linear(in_features=48, out_features=192, bias=False)
            )
          )
        )
        (proj): SO3_LinearV2(in_features=96, out_features=96, lmax=4)
      )
      (norm_2): EquivariantLayerNormArraySphericalHarmonics(lmax=4, num_channels=96, eps=1e-05, std_balance_degrees=True)
      (ffn): FeedForwardNetwork(
        (SO3_grid): (4, 4)
        (so3_linear_1): SO3_LinearV2(in_features=96, out_features=96, lmax=4)
        (scalar_mlp): Sequential(
          (0): Linear(in_features=96, out_features=96, bias=True)
          (1): SiLU()
        )
        (grid_mlp): Sequential(
          (0): Linear(in_features=96, out_features=96, bias=False)
          (1): SiLU()
          (2): Linear(in_features=96, out_features=96, bias=False)
          (3): SiLU()
          (4): Linear(in_features=96, out_features=96, bias=False)
        )
        (so3_linear_2): SO3_LinearV2(in_features=96, out_features=96, lmax=4)
      )
    )
    (3): TransBlockV2(
      (norm_1): EquivariantLayerNormArraySphericalHarmonics(lmax=4, num_channels=96, eps=1e-05, std_balance_degrees=True)
      (ga): SO2EquivariantGraphAttention(
        (SO3_rotation): ModuleList(
          (0): SO3_Rotation(
            (mapping): CoefficientMappingModule(lmax_list=[4], mmax_list=[4])
          )
        )
        (mappingReduced): CoefficientMappingModule(lmax_list=[4], mmax_list=[4])
        (SO3_grid): (4, 4)
        (source_embedding): Embedding(90, 64)
        (target_embedding): Embedding(90, 64)
        (so2_conv_1): SO2_Convolution(
          (mappingReduced): CoefficientMappingModule(lmax_list=[4], mmax_list=[4])
          (fc_m0): Linear(in_features=960, out_features=544, bias=True)
          (so2_m_conv): ModuleList(
            (0): SO2_m_Convolution(
              (fc): Linear(in_features=768, out_features=384, bias=False)
            )
            (1): SO2_m_Convolution(
              (fc): Linear(in_features=576, out_features=288, bias=False)
            )
            (2): SO2_m_Convolution(
              (fc): Linear(in_features=384, out_features=192, bias=False)
            )
            (3): SO2_m_Convolution(
              (fc): Linear(in_features=192, out_features=96, bias=False)
            )
          )
          (rad_func): RadialFunction(
            (net): Sequential(
              (0): Linear(in_features=256, out_features=64, bias=True)
              (1): LayerNorm((64,), eps=1e-05, elementwise_affine=True)
              (2): SiLU()
              (3): Linear(in_features=64, out_features=64, bias=True)
              (4): LayerNorm((64,), eps=1e-05, elementwise_affine=True)
              (5): SiLU()
              (6): Linear(in_features=64, out_features=2880, bias=True)
            )
          )
        )
        (alpha_norm): LayerNorm((64,), eps=1e-05, elementwise_affine=True)
        (alpha_act): SmoothLeakyReLU(negative_slope=0.2)
        (s2_act): SeparableS2Activation(
          (scalar_act): SiLU()
          (s2_act): S2Activation(
            (act): SiLU()
          )
        )
        (so2_conv_2): SO2_Convolution(
          (mappingReduced): CoefficientMappingModule(lmax_list=[4], mmax_list=[4])
          (fc_m0): Linear(in_features=240, out_features=480, bias=True)
          (so2_m_conv): ModuleList(
            (0): SO2_m_Convolution(
              (fc): Linear(in_features=192, out_features=768, bias=False)
            )
            (1): SO2_m_Convolution(
              (fc): Linear(in_features=144, out_features=576, bias=False)
            )
            (2): SO2_m_Convolution(
              (fc): Linear(in_features=96, out_features=384, bias=False)
            )
            (3): SO2_m_Convolution(
              (fc): Linear(in_features=48, out_features=192, bias=False)
            )
          )
        )
        (proj): SO3_LinearV2(in_features=96, out_features=96, lmax=4)
      )
      (norm_2): EquivariantLayerNormArraySphericalHarmonics(lmax=4, num_channels=96, eps=1e-05, std_balance_degrees=True)
      (ffn): FeedForwardNetwork(
        (SO3_grid): (4, 4)
        (so3_linear_1): SO3_LinearV2(in_features=96, out_features=96, lmax=4)
        (scalar_mlp): Sequential(
          (0): Linear(in_features=96, out_features=96, bias=True)
          (1): SiLU()
        )
        (grid_mlp): Sequential(
          (0): Linear(in_features=96, out_features=96, bias=False)
          (1): SiLU()
          (2): Linear(in_features=96, out_features=96, bias=False)
          (3): SiLU()
          (4): Linear(in_features=96, out_features=96, bias=False)
        )
        (so3_linear_2): SO3_LinearV2(in_features=96, out_features=96, lmax=4)
      )
    )
    (4): TransBlockV2(
      (norm_1): EquivariantLayerNormArraySphericalHarmonics(lmax=4, num_channels=96, eps=1e-05, std_balance_degrees=True)
      (ga): SO2EquivariantGraphAttention(
        (SO3_rotation): ModuleList(
          (0): SO3_Rotation(
            (mapping): CoefficientMappingModule(lmax_list=[4], mmax_list=[4])
          )
        )
        (mappingReduced): CoefficientMappingModule(lmax_list=[4], mmax_list=[4])
        (SO3_grid): (4, 4)
        (source_embedding): Embedding(90, 64)
        (target_embedding): Embedding(90, 64)
        (so2_conv_1): SO2_Convolution(
          (mappingReduced): CoefficientMappingModule(lmax_list=[4], mmax_list=[4])
          (fc_m0): Linear(in_features=960, out_features=544, bias=True)
          (so2_m_conv): ModuleList(
            (0): SO2_m_Convolution(
              (fc): Linear(in_features=768, out_features=384, bias=False)
            )
            (1): SO2_m_Convolution(
              (fc): Linear(in_features=576, out_features=288, bias=False)
            )
            (2): SO2_m_Convolution(
              (fc): Linear(in_features=384, out_features=192, bias=False)
            )
            (3): SO2_m_Convolution(
              (fc): Linear(in_features=192, out_features=96, bias=False)
            )
          )
          (rad_func): RadialFunction(
            (net): Sequential(
              (0): Linear(in_features=256, out_features=64, bias=True)
              (1): LayerNorm((64,), eps=1e-05, elementwise_affine=True)
              (2): SiLU()
              (3): Linear(in_features=64, out_features=64, bias=True)
              (4): LayerNorm((64,), eps=1e-05, elementwise_affine=True)
              (5): SiLU()
              (6): Linear(in_features=64, out_features=2880, bias=True)
            )
          )
        )
        (alpha_norm): LayerNorm((64,), eps=1e-05, elementwise_affine=True)
        (alpha_act): SmoothLeakyReLU(negative_slope=0.2)
        (s2_act): SeparableS2Activation(
          (scalar_act): SiLU()
          (s2_act): S2Activation(
            (act): SiLU()
          )
        )
        (so2_conv_2): SO2_Convolution(
          (mappingReduced): CoefficientMappingModule(lmax_list=[4], mmax_list=[4])
          (fc_m0): Linear(in_features=240, out_features=480, bias=True)
          (so2_m_conv): ModuleList(
            (0): SO2_m_Convolution(
              (fc): Linear(in_features=192, out_features=768, bias=False)
            )
            (1): SO2_m_Convolution(
              (fc): Linear(in_features=144, out_features=576, bias=False)
            )
            (2): SO2_m_Convolution(
              (fc): Linear(in_features=96, out_features=384, bias=False)
            )
            (3): SO2_m_Convolution(
              (fc): Linear(in_features=48, out_features=192, bias=False)
            )
          )
        )
        (proj): SO3_LinearV2(in_features=96, out_features=96, lmax=4)
      )
      (norm_2): EquivariantLayerNormArraySphericalHarmonics(lmax=4, num_channels=96, eps=1e-05, std_balance_degrees=True)
      (ffn): FeedForwardNetwork(
        (SO3_grid): (4, 4)
        (so3_linear_1): SO3_LinearV2(in_features=96, out_features=96, lmax=4)
        (scalar_mlp): Sequential(
          (0): Linear(in_features=96, out_features=96, bias=True)
          (1): SiLU()
        )
        (grid_mlp): Sequential(
          (0): Linear(in_features=96, out_features=96, bias=False)
          (1): SiLU()
          (2): Linear(in_features=96, out_features=96, bias=False)
          (3): SiLU()
          (4): Linear(in_features=96, out_features=96, bias=False)
        )
        (so3_linear_2): SO3_LinearV2(in_features=96, out_features=96, lmax=4)
      )
    )
  )
  (norm): EquivariantLayerNormArraySphericalHarmonics(lmax=4, num_channels=96, eps=1e-05, std_balance_degrees=True)
  (energy_block): FeedForwardNetwork(
    (SO3_grid): (4, 4)
    (so3_linear_1): SO3_LinearV2(in_features=96, out_features=96, lmax=4)
    (scalar_mlp): Sequential(
      (0): Linear(in_features=96, out_features=96, bias=True)
      (1): SiLU()
    )
    (grid_mlp): Sequential(
      (0): Linear(in_features=96, out_features=96, bias=False)
      (1): SiLU()
      (2): Linear(in_features=96, out_features=96, bias=False)
      (3): SiLU()
      (4): Linear(in_features=96, out_features=96, bias=False)
    )
    (so3_linear_2): SO3_LinearV2(in_features=96, out_features=1, lmax=4)
  )
)
2025-01-26 23:28:41,642 - logger.py:50 - Number of params: 9478977
2025-01-26 23:30:16,581 - logger.py:50 - Namespace(amp=False, compute_stats=False, config_file='qm9/U0_config.yml', data_path='datasets/qm9', dist_url='env://', distributed=False, drop_path=0.0, feature_type='one_hot', local_rank=0, loss='l1', model_ema=False, model_ema_decay=0.9999, model_ema_force_cpu=False, output_dir='train_results/qm9/U0', pin_mem=True, print_freq=100, rank=0, seed=0, standardize=False, target=7, workers=4, world_size=1)
2025-01-26 23:30:22,555 - logger.py:50 - Training set mean: -76.12300872802734, std:10.329672813415527
2025-01-26 23:30:23,097 - logger.py:50 - EquiformerV2_QM9(
  (sphere_embedding): Embedding(90, 96)
  (distance_expansion): GaussianSmearing()
  (SO3_rotation): ModuleList(
    (0): SO3_Rotation(
      (mapping): CoefficientMappingModule(lmax_list=[4], mmax_list=[4])
    )
  )
  (mappingReduced): CoefficientMappingModule(lmax_list=[4], mmax_list=[4])
  (SO3_grid): (4, 4)
  (edge_degree_embedding): EdgeDegreeEmbedding(
    (SO3_rotation): ModuleList(
      (0): SO3_Rotation(
        (mapping): CoefficientMappingModule(lmax_list=[4], mmax_list=[4])
      )
    )
    (mappingReduced): CoefficientMappingModule(lmax_list=[4], mmax_list=[4])
    (source_embedding): Embedding(90, 64)
    (target_embedding): Embedding(90, 64)
    (rad_func): RadialFunction(
      (net): Sequential(
        (0): Linear(in_features=256, out_features=64, bias=True)
        (1): LayerNorm((64,), eps=1e-05, elementwise_affine=True)
        (2): SiLU()
        (3): Linear(in_features=64, out_features=64, bias=True)
        (4): LayerNorm((64,), eps=1e-05, elementwise_affine=True)
        (5): SiLU()
        (6): Linear(in_features=64, out_features=480, bias=True)
      )
    )
  )
  (blocks): ModuleList(
    (0): TransBlockV2(
      (norm_1): EquivariantLayerNormArraySphericalHarmonics(lmax=4, num_channels=96, eps=1e-05, std_balance_degrees=True)
      (ga): SO2EquivariantGraphAttention(
        (SO3_rotation): ModuleList(
          (0): SO3_Rotation(
            (mapping): CoefficientMappingModule(lmax_list=[4], mmax_list=[4])
          )
        )
        (mappingReduced): CoefficientMappingModule(lmax_list=[4], mmax_list=[4])
        (SO3_grid): (4, 4)
        (source_embedding): Embedding(90, 64)
        (target_embedding): Embedding(90, 64)
        (so2_conv_1): SO2_Convolution(
          (mappingReduced): CoefficientMappingModule(lmax_list=[4], mmax_list=[4])
          (fc_m0): Linear(in_features=960, out_features=544, bias=True)
          (so2_m_conv): ModuleList(
            (0): SO2_m_Convolution(
              (fc): Linear(in_features=768, out_features=384, bias=False)
            )
            (1): SO2_m_Convolution(
              (fc): Linear(in_features=576, out_features=288, bias=False)
            )
            (2): SO2_m_Convolution(
              (fc): Linear(in_features=384, out_features=192, bias=False)
            )
            (3): SO2_m_Convolution(
              (fc): Linear(in_features=192, out_features=96, bias=False)
            )
          )
          (rad_func): RadialFunction(
            (net): Sequential(
              (0): Linear(in_features=256, out_features=64, bias=True)
              (1): LayerNorm((64,), eps=1e-05, elementwise_affine=True)
              (2): SiLU()
              (3): Linear(in_features=64, out_features=64, bias=True)
              (4): LayerNorm((64,), eps=1e-05, elementwise_affine=True)
              (5): SiLU()
              (6): Linear(in_features=64, out_features=2880, bias=True)
            )
          )
        )
        (alpha_norm): LayerNorm((64,), eps=1e-05, elementwise_affine=True)
        (alpha_act): SmoothLeakyReLU(negative_slope=0.2)
        (s2_act): SeparableS2Activation(
          (scalar_act): SiLU()
          (s2_act): S2Activation(
            (act): SiLU()
          )
        )
        (so2_conv_2): SO2_Convolution(
          (mappingReduced): CoefficientMappingModule(lmax_list=[4], mmax_list=[4])
          (fc_m0): Linear(in_features=240, out_features=480, bias=True)
          (so2_m_conv): ModuleList(
            (0): SO2_m_Convolution(
              (fc): Linear(in_features=192, out_features=768, bias=False)
            )
            (1): SO2_m_Convolution(
              (fc): Linear(in_features=144, out_features=576, bias=False)
            )
            (2): SO2_m_Convolution(
              (fc): Linear(in_features=96, out_features=384, bias=False)
            )
            (3): SO2_m_Convolution(
              (fc): Linear(in_features=48, out_features=192, bias=False)
            )
          )
        )
        (proj): SO3_LinearV2(in_features=96, out_features=96, lmax=4)
      )
      (norm_2): EquivariantLayerNormArraySphericalHarmonics(lmax=4, num_channels=96, eps=1e-05, std_balance_degrees=True)
      (ffn): FeedForwardNetwork(
        (SO3_grid): (4, 4)
        (so3_linear_1): SO3_LinearV2(in_features=96, out_features=96, lmax=4)
        (scalar_mlp): Sequential(
          (0): Linear(in_features=96, out_features=96, bias=True)
          (1): SiLU()
        )
        (grid_mlp): Sequential(
          (0): Linear(in_features=96, out_features=96, bias=False)
          (1): SiLU()
          (2): Linear(in_features=96, out_features=96, bias=False)
          (3): SiLU()
          (4): Linear(in_features=96, out_features=96, bias=False)
        )
        (so3_linear_2): SO3_LinearV2(in_features=96, out_features=96, lmax=4)
      )
    )
    (1): TransBlockV2(
      (norm_1): EquivariantLayerNormArraySphericalHarmonics(lmax=4, num_channels=96, eps=1e-05, std_balance_degrees=True)
      (ga): SO2EquivariantGraphAttention(
        (SO3_rotation): ModuleList(
          (0): SO3_Rotation(
            (mapping): CoefficientMappingModule(lmax_list=[4], mmax_list=[4])
          )
        )
        (mappingReduced): CoefficientMappingModule(lmax_list=[4], mmax_list=[4])
        (SO3_grid): (4, 4)
        (source_embedding): Embedding(90, 64)
        (target_embedding): Embedding(90, 64)
        (so2_conv_1): SO2_Convolution(
          (mappingReduced): CoefficientMappingModule(lmax_list=[4], mmax_list=[4])
          (fc_m0): Linear(in_features=960, out_features=544, bias=True)
          (so2_m_conv): ModuleList(
            (0): SO2_m_Convolution(
              (fc): Linear(in_features=768, out_features=384, bias=False)
            )
            (1): SO2_m_Convolution(
              (fc): Linear(in_features=576, out_features=288, bias=False)
            )
            (2): SO2_m_Convolution(
              (fc): Linear(in_features=384, out_features=192, bias=False)
            )
            (3): SO2_m_Convolution(
              (fc): Linear(in_features=192, out_features=96, bias=False)
            )
          )
          (rad_func): RadialFunction(
            (net): Sequential(
              (0): Linear(in_features=256, out_features=64, bias=True)
              (1): LayerNorm((64,), eps=1e-05, elementwise_affine=True)
              (2): SiLU()
              (3): Linear(in_features=64, out_features=64, bias=True)
              (4): LayerNorm((64,), eps=1e-05, elementwise_affine=True)
              (5): SiLU()
              (6): Linear(in_features=64, out_features=2880, bias=True)
            )
          )
        )
        (alpha_norm): LayerNorm((64,), eps=1e-05, elementwise_affine=True)
        (alpha_act): SmoothLeakyReLU(negative_slope=0.2)
        (s2_act): SeparableS2Activation(
          (scalar_act): SiLU()
          (s2_act): S2Activation(
            (act): SiLU()
          )
        )
        (so2_conv_2): SO2_Convolution(
          (mappingReduced): CoefficientMappingModule(lmax_list=[4], mmax_list=[4])
          (fc_m0): Linear(in_features=240, out_features=480, bias=True)
          (so2_m_conv): ModuleList(
            (0): SO2_m_Convolution(
              (fc): Linear(in_features=192, out_features=768, bias=False)
            )
            (1): SO2_m_Convolution(
              (fc): Linear(in_features=144, out_features=576, bias=False)
            )
            (2): SO2_m_Convolution(
              (fc): Linear(in_features=96, out_features=384, bias=False)
            )
            (3): SO2_m_Convolution(
              (fc): Linear(in_features=48, out_features=192, bias=False)
            )
          )
        )
        (proj): SO3_LinearV2(in_features=96, out_features=96, lmax=4)
      )
      (norm_2): EquivariantLayerNormArraySphericalHarmonics(lmax=4, num_channels=96, eps=1e-05, std_balance_degrees=True)
      (ffn): FeedForwardNetwork(
        (SO3_grid): (4, 4)
        (so3_linear_1): SO3_LinearV2(in_features=96, out_features=96, lmax=4)
        (scalar_mlp): Sequential(
          (0): Linear(in_features=96, out_features=96, bias=True)
          (1): SiLU()
        )
        (grid_mlp): Sequential(
          (0): Linear(in_features=96, out_features=96, bias=False)
          (1): SiLU()
          (2): Linear(in_features=96, out_features=96, bias=False)
          (3): SiLU()
          (4): Linear(in_features=96, out_features=96, bias=False)
        )
        (so3_linear_2): SO3_LinearV2(in_features=96, out_features=96, lmax=4)
      )
    )
    (2): TransBlockV2(
      (norm_1): EquivariantLayerNormArraySphericalHarmonics(lmax=4, num_channels=96, eps=1e-05, std_balance_degrees=True)
      (ga): SO2EquivariantGraphAttention(
        (SO3_rotation): ModuleList(
          (0): SO3_Rotation(
            (mapping): CoefficientMappingModule(lmax_list=[4], mmax_list=[4])
          )
        )
        (mappingReduced): CoefficientMappingModule(lmax_list=[4], mmax_list=[4])
        (SO3_grid): (4, 4)
        (source_embedding): Embedding(90, 64)
        (target_embedding): Embedding(90, 64)
        (so2_conv_1): SO2_Convolution(
          (mappingReduced): CoefficientMappingModule(lmax_list=[4], mmax_list=[4])
          (fc_m0): Linear(in_features=960, out_features=544, bias=True)
          (so2_m_conv): ModuleList(
            (0): SO2_m_Convolution(
              (fc): Linear(in_features=768, out_features=384, bias=False)
            )
            (1): SO2_m_Convolution(
              (fc): Linear(in_features=576, out_features=288, bias=False)
            )
            (2): SO2_m_Convolution(
              (fc): Linear(in_features=384, out_features=192, bias=False)
            )
            (3): SO2_m_Convolution(
              (fc): Linear(in_features=192, out_features=96, bias=False)
            )
          )
          (rad_func): RadialFunction(
            (net): Sequential(
              (0): Linear(in_features=256, out_features=64, bias=True)
              (1): LayerNorm((64,), eps=1e-05, elementwise_affine=True)
              (2): SiLU()
              (3): Linear(in_features=64, out_features=64, bias=True)
              (4): LayerNorm((64,), eps=1e-05, elementwise_affine=True)
              (5): SiLU()
              (6): Linear(in_features=64, out_features=2880, bias=True)
            )
          )
        )
        (alpha_norm): LayerNorm((64,), eps=1e-05, elementwise_affine=True)
        (alpha_act): SmoothLeakyReLU(negative_slope=0.2)
        (s2_act): SeparableS2Activation(
          (scalar_act): SiLU()
          (s2_act): S2Activation(
            (act): SiLU()
          )
        )
        (so2_conv_2): SO2_Convolution(
          (mappingReduced): CoefficientMappingModule(lmax_list=[4], mmax_list=[4])
          (fc_m0): Linear(in_features=240, out_features=480, bias=True)
          (so2_m_conv): ModuleList(
            (0): SO2_m_Convolution(
              (fc): Linear(in_features=192, out_features=768, bias=False)
            )
            (1): SO2_m_Convolution(
              (fc): Linear(in_features=144, out_features=576, bias=False)
            )
            (2): SO2_m_Convolution(
              (fc): Linear(in_features=96, out_features=384, bias=False)
            )
            (3): SO2_m_Convolution(
              (fc): Linear(in_features=48, out_features=192, bias=False)
            )
          )
        )
        (proj): SO3_LinearV2(in_features=96, out_features=96, lmax=4)
      )
      (norm_2): EquivariantLayerNormArraySphericalHarmonics(lmax=4, num_channels=96, eps=1e-05, std_balance_degrees=True)
      (ffn): FeedForwardNetwork(
        (SO3_grid): (4, 4)
        (so3_linear_1): SO3_LinearV2(in_features=96, out_features=96, lmax=4)
        (scalar_mlp): Sequential(
          (0): Linear(in_features=96, out_features=96, bias=True)
          (1): SiLU()
        )
        (grid_mlp): Sequential(
          (0): Linear(in_features=96, out_features=96, bias=False)
          (1): SiLU()
          (2): Linear(in_features=96, out_features=96, bias=False)
          (3): SiLU()
          (4): Linear(in_features=96, out_features=96, bias=False)
        )
        (so3_linear_2): SO3_LinearV2(in_features=96, out_features=96, lmax=4)
      )
    )
    (3): TransBlockV2(
      (norm_1): EquivariantLayerNormArraySphericalHarmonics(lmax=4, num_channels=96, eps=1e-05, std_balance_degrees=True)
      (ga): SO2EquivariantGraphAttention(
        (SO3_rotation): ModuleList(
          (0): SO3_Rotation(
            (mapping): CoefficientMappingModule(lmax_list=[4], mmax_list=[4])
          )
        )
        (mappingReduced): CoefficientMappingModule(lmax_list=[4], mmax_list=[4])
        (SO3_grid): (4, 4)
        (source_embedding): Embedding(90, 64)
        (target_embedding): Embedding(90, 64)
        (so2_conv_1): SO2_Convolution(
          (mappingReduced): CoefficientMappingModule(lmax_list=[4], mmax_list=[4])
          (fc_m0): Linear(in_features=960, out_features=544, bias=True)
          (so2_m_conv): ModuleList(
            (0): SO2_m_Convolution(
              (fc): Linear(in_features=768, out_features=384, bias=False)
            )
            (1): SO2_m_Convolution(
              (fc): Linear(in_features=576, out_features=288, bias=False)
            )
            (2): SO2_m_Convolution(
              (fc): Linear(in_features=384, out_features=192, bias=False)
            )
            (3): SO2_m_Convolution(
              (fc): Linear(in_features=192, out_features=96, bias=False)
            )
          )
          (rad_func): RadialFunction(
            (net): Sequential(
              (0): Linear(in_features=256, out_features=64, bias=True)
              (1): LayerNorm((64,), eps=1e-05, elementwise_affine=True)
              (2): SiLU()
              (3): Linear(in_features=64, out_features=64, bias=True)
              (4): LayerNorm((64,), eps=1e-05, elementwise_affine=True)
              (5): SiLU()
              (6): Linear(in_features=64, out_features=2880, bias=True)
            )
          )
        )
        (alpha_norm): LayerNorm((64,), eps=1e-05, elementwise_affine=True)
        (alpha_act): SmoothLeakyReLU(negative_slope=0.2)
        (s2_act): SeparableS2Activation(
          (scalar_act): SiLU()
          (s2_act): S2Activation(
            (act): SiLU()
          )
        )
        (so2_conv_2): SO2_Convolution(
          (mappingReduced): CoefficientMappingModule(lmax_list=[4], mmax_list=[4])
          (fc_m0): Linear(in_features=240, out_features=480, bias=True)
          (so2_m_conv): ModuleList(
            (0): SO2_m_Convolution(
              (fc): Linear(in_features=192, out_features=768, bias=False)
            )
            (1): SO2_m_Convolution(
              (fc): Linear(in_features=144, out_features=576, bias=False)
            )
            (2): SO2_m_Convolution(
              (fc): Linear(in_features=96, out_features=384, bias=False)
            )
            (3): SO2_m_Convolution(
              (fc): Linear(in_features=48, out_features=192, bias=False)
            )
          )
        )
        (proj): SO3_LinearV2(in_features=96, out_features=96, lmax=4)
      )
      (norm_2): EquivariantLayerNormArraySphericalHarmonics(lmax=4, num_channels=96, eps=1e-05, std_balance_degrees=True)
      (ffn): FeedForwardNetwork(
        (SO3_grid): (4, 4)
        (so3_linear_1): SO3_LinearV2(in_features=96, out_features=96, lmax=4)
        (scalar_mlp): Sequential(
          (0): Linear(in_features=96, out_features=96, bias=True)
          (1): SiLU()
        )
        (grid_mlp): Sequential(
          (0): Linear(in_features=96, out_features=96, bias=False)
          (1): SiLU()
          (2): Linear(in_features=96, out_features=96, bias=False)
          (3): SiLU()
          (4): Linear(in_features=96, out_features=96, bias=False)
        )
        (so3_linear_2): SO3_LinearV2(in_features=96, out_features=96, lmax=4)
      )
    )
    (4): TransBlockV2(
      (norm_1): EquivariantLayerNormArraySphericalHarmonics(lmax=4, num_channels=96, eps=1e-05, std_balance_degrees=True)
      (ga): SO2EquivariantGraphAttention(
        (SO3_rotation): ModuleList(
          (0): SO3_Rotation(
            (mapping): CoefficientMappingModule(lmax_list=[4], mmax_list=[4])
          )
        )
        (mappingReduced): CoefficientMappingModule(lmax_list=[4], mmax_list=[4])
        (SO3_grid): (4, 4)
        (source_embedding): Embedding(90, 64)
        (target_embedding): Embedding(90, 64)
        (so2_conv_1): SO2_Convolution(
          (mappingReduced): CoefficientMappingModule(lmax_list=[4], mmax_list=[4])
          (fc_m0): Linear(in_features=960, out_features=544, bias=True)
          (so2_m_conv): ModuleList(
            (0): SO2_m_Convolution(
              (fc): Linear(in_features=768, out_features=384, bias=False)
            )
            (1): SO2_m_Convolution(
              (fc): Linear(in_features=576, out_features=288, bias=False)
            )
            (2): SO2_m_Convolution(
              (fc): Linear(in_features=384, out_features=192, bias=False)
            )
            (3): SO2_m_Convolution(
              (fc): Linear(in_features=192, out_features=96, bias=False)
            )
          )
          (rad_func): RadialFunction(
            (net): Sequential(
              (0): Linear(in_features=256, out_features=64, bias=True)
              (1): LayerNorm((64,), eps=1e-05, elementwise_affine=True)
              (2): SiLU()
              (3): Linear(in_features=64, out_features=64, bias=True)
              (4): LayerNorm((64,), eps=1e-05, elementwise_affine=True)
              (5): SiLU()
              (6): Linear(in_features=64, out_features=2880, bias=True)
            )
          )
        )
        (alpha_norm): LayerNorm((64,), eps=1e-05, elementwise_affine=True)
        (alpha_act): SmoothLeakyReLU(negative_slope=0.2)
        (s2_act): SeparableS2Activation(
          (scalar_act): SiLU()
          (s2_act): S2Activation(
            (act): SiLU()
          )
        )
        (so2_conv_2): SO2_Convolution(
          (mappingReduced): CoefficientMappingModule(lmax_list=[4], mmax_list=[4])
          (fc_m0): Linear(in_features=240, out_features=480, bias=True)
          (so2_m_conv): ModuleList(
            (0): SO2_m_Convolution(
              (fc): Linear(in_features=192, out_features=768, bias=False)
            )
            (1): SO2_m_Convolution(
              (fc): Linear(in_features=144, out_features=576, bias=False)
            )
            (2): SO2_m_Convolution(
              (fc): Linear(in_features=96, out_features=384, bias=False)
            )
            (3): SO2_m_Convolution(
              (fc): Linear(in_features=48, out_features=192, bias=False)
            )
          )
        )
        (proj): SO3_LinearV2(in_features=96, out_features=96, lmax=4)
      )
      (norm_2): EquivariantLayerNormArraySphericalHarmonics(lmax=4, num_channels=96, eps=1e-05, std_balance_degrees=True)
      (ffn): FeedForwardNetwork(
        (SO3_grid): (4, 4)
        (so3_linear_1): SO3_LinearV2(in_features=96, out_features=96, lmax=4)
        (scalar_mlp): Sequential(
          (0): Linear(in_features=96, out_features=96, bias=True)
          (1): SiLU()
        )
        (grid_mlp): Sequential(
          (0): Linear(in_features=96, out_features=96, bias=False)
          (1): SiLU()
          (2): Linear(in_features=96, out_features=96, bias=False)
          (3): SiLU()
          (4): Linear(in_features=96, out_features=96, bias=False)
        )
        (so3_linear_2): SO3_LinearV2(in_features=96, out_features=96, lmax=4)
      )
    )
  )
  (norm): EquivariantLayerNormArraySphericalHarmonics(lmax=4, num_channels=96, eps=1e-05, std_balance_degrees=True)
  (energy_block): FeedForwardNetwork(
    (SO3_grid): (4, 4)
    (so3_linear_1): SO3_LinearV2(in_features=96, out_features=96, lmax=4)
    (scalar_mlp): Sequential(
      (0): Linear(in_features=96, out_features=96, bias=True)
      (1): SiLU()
    )
    (grid_mlp): Sequential(
      (0): Linear(in_features=96, out_features=96, bias=False)
      (1): SiLU()
      (2): Linear(in_features=96, out_features=96, bias=False)
      (3): SiLU()
      (4): Linear(in_features=96, out_features=96, bias=False)
    )
    (so3_linear_2): SO3_LinearV2(in_features=96, out_features=1, lmax=4)
  )
)
2025-01-26 23:30:23,778 - logger.py:50 - Number of params: 9478977
2025-01-26 23:31:30,816 - logger.py:50 - Namespace(amp=False, compute_stats=False, config_file='qm9/U0_config.yml', data_path='datasets/qm9', dist_url='env://', distributed=False, drop_path=0.0, feature_type='one_hot', local_rank=0, loss='l1', model_ema=False, model_ema_decay=0.9999, model_ema_force_cpu=False, output_dir='train_results/qm9/U0', pin_mem=True, print_freq=100, rank=0, seed=0, standardize=False, target=7, workers=4, world_size=1)
2025-01-26 23:31:36,870 - logger.py:50 - Training set mean: -76.12300872802734, std:10.329672813415527
2025-01-26 23:31:37,416 - logger.py:50 - EquiformerV2_QM9(
  (sphere_embedding): Embedding(90, 96)
  (distance_expansion): GaussianSmearing()
  (SO3_rotation): ModuleList(
    (0): SO3_Rotation(
      (mapping): CoefficientMappingModule(lmax_list=[4], mmax_list=[4])
    )
  )
  (mappingReduced): CoefficientMappingModule(lmax_list=[4], mmax_list=[4])
  (SO3_grid): (4, 4)
  (edge_degree_embedding): EdgeDegreeEmbedding(
    (SO3_rotation): ModuleList(
      (0): SO3_Rotation(
        (mapping): CoefficientMappingModule(lmax_list=[4], mmax_list=[4])
      )
    )
    (mappingReduced): CoefficientMappingModule(lmax_list=[4], mmax_list=[4])
    (source_embedding): Embedding(90, 64)
    (target_embedding): Embedding(90, 64)
    (rad_func): RadialFunction(
      (net): Sequential(
        (0): Linear(in_features=256, out_features=64, bias=True)
        (1): LayerNorm((64,), eps=1e-05, elementwise_affine=True)
        (2): SiLU()
        (3): Linear(in_features=64, out_features=64, bias=True)
        (4): LayerNorm((64,), eps=1e-05, elementwise_affine=True)
        (5): SiLU()
        (6): Linear(in_features=64, out_features=480, bias=True)
      )
    )
  )
  (blocks): ModuleList(
    (0): TransBlockV2(
      (norm_1): EquivariantLayerNormArraySphericalHarmonics(lmax=4, num_channels=96, eps=1e-05, std_balance_degrees=True)
      (ga): SO2EquivariantGraphAttention(
        (SO3_rotation): ModuleList(
          (0): SO3_Rotation(
            (mapping): CoefficientMappingModule(lmax_list=[4], mmax_list=[4])
          )
        )
        (mappingReduced): CoefficientMappingModule(lmax_list=[4], mmax_list=[4])
        (SO3_grid): (4, 4)
        (source_embedding): Embedding(90, 64)
        (target_embedding): Embedding(90, 64)
        (so2_conv_1): SO2_Convolution(
          (mappingReduced): CoefficientMappingModule(lmax_list=[4], mmax_list=[4])
          (fc_m0): Linear(in_features=960, out_features=544, bias=True)
          (so2_m_conv): ModuleList(
            (0): SO2_m_Convolution(
              (fc): Linear(in_features=768, out_features=384, bias=False)
            )
            (1): SO2_m_Convolution(
              (fc): Linear(in_features=576, out_features=288, bias=False)
            )
            (2): SO2_m_Convolution(
              (fc): Linear(in_features=384, out_features=192, bias=False)
            )
            (3): SO2_m_Convolution(
              (fc): Linear(in_features=192, out_features=96, bias=False)
            )
          )
          (rad_func): RadialFunction(
            (net): Sequential(
              (0): Linear(in_features=256, out_features=64, bias=True)
              (1): LayerNorm((64,), eps=1e-05, elementwise_affine=True)
              (2): SiLU()
              (3): Linear(in_features=64, out_features=64, bias=True)
              (4): LayerNorm((64,), eps=1e-05, elementwise_affine=True)
…
            (mapping): CoefficientMappingModule(lmax_list=[4], mmax_list=[4])
          )
        )
        (mappingReduced): CoefficientMappingModule(lmax_list=[4], mmax_list=[4])
        (SO3_grid): (4, 4)
        (source_embedding): Embedding(90, 64)
        (target_embedding): Embedding(90, 64)
        (so2_conv_1): SO2_Convolution(
          (mappingReduced): CoefficientMappingModule(lmax_list=[4], mmax_list=[4])
          (fc_m0): Linear(in_features=960, out_features=544, bias=True)
          (so2_m_conv): ModuleList(
            (0): SO2_m_Convolution(
              (fc): Linear(in_features=768, out_features=384, bias=False)
            )
            (1): SO2_m_Convolution(
              (fc): Linear(in_features=576, out_features=288, bias=False)
            )
            (2): SO2_m_Convolution(
              (fc): Linear(in_features=384, out_features=192, bias=False)
            )
            (3): SO2_m_Convolution(
              (fc): Linear(in_features=192, out_features=96, bias=False)
            )
          )
          (rad_func): RadialFunction(
            (net): Sequential(
              (0): Linear(in_features=256, out_features=64, bias=True)
              (1): LayerNorm((64,), eps=1e-05, elementwise_affine=True)
              (2): SiLU()
              (3): Linear(in_features=64, out_features=64, bias=True)
              (4): LayerNorm((64,), eps=1e-05, elementwise_affine=True)
              (5): SiLU()
              (6): Linear(in_features=64, out_features=2880, bias=True)
            )
          )
        )
        (alpha_norm): LayerNorm((64,), eps=1e-05, elementwise_affine=True)
        (alpha_act): SmoothLeakyReLU(negative_slope=0.2)
        (s2_act): SeparableS2Activation(
          (scalar_act): SiLU()
          (s2_act): S2Activation(
            (act): SiLU()
          )
        )
        (so2_conv_2): SO2_Convolution(
          (mappingReduced): CoefficientMappingModule(lmax_list=[4], mmax_list=[4])
          (fc_m0): Linear(in_features=240, out_features=480, bias=True)
          (so2_m_conv): ModuleList(
            (0): SO2_m_Convolution(
              (fc): Linear(in_features=192, out_features=768, bias=False)
            )
            (1): SO2_m_Convolution(
              (fc): Linear(in_features=144, out_features=576, bias=False)
            )
            (2): SO2_m_Convolution(
              (fc): Linear(in_features=96, out_features=384, bias=False)
            )
            (3): SO2_m_Convolution(
              (fc): Linear(in_features=48, out_features=192, bias=False)
            )
          )
        )
        (proj): SO3_LinearV2(in_features=96, out_features=96, lmax=4)
      )
      (norm_2): EquivariantLayerNormArraySphericalHarmonics(lmax=4, num_channels=96, eps=1e-05, std_balance_degrees=True)
      (ffn): FeedForwardNetwork(
        (SO3_grid): (4, 4)
        (so3_linear_1): SO3_LinearV2(in_features=96, out_features=96, lmax=4)
        (scalar_mlp): Sequential(
          (0): Linear(in_features=96, out_features=96, bias=True)
          (1): SiLU()
        )
        (grid_mlp): Sequential(
          (0): Linear(in_features=96, out_features=96, bias=False)
          (1): SiLU()
          (2): Linear(in_features=96, out_features=96, bias=False)
          (3): SiLU()
          (4): Linear(in_features=96, out_features=96, bias=False)
        )
        (so3_linear_2): SO3_LinearV2(in_features=96, out_features=96, lmax=4)
      )
    )
    (4): TransBlockV2(
      (norm_1): EquivariantLayerNormArraySphericalHarmonics(lmax=4, num_channels=96, eps=1e-05, std_balance_degrees=True)
      (ga): SO2EquivariantGraphAttention(
        (SO3_rotation): ModuleList(
          (0): SO3_Rotation(
            (mapping): CoefficientMappingModule(lmax_list=[4], mmax_list=[4])
          )
        )
        (mappingReduced): CoefficientMappingModule(lmax_list=[4], mmax_list=[4])
        (SO3_grid): (4, 4)
        (source_embedding): Embedding(90, 64)
        (target_embedding): Embedding(90, 64)
        (so2_conv_1): SO2_Convolution(
          (mappingReduced): CoefficientMappingModule(lmax_list=[4], mmax_list=[4])
          (fc_m0): Linear(in_features=960, out_features=544, bias=True)
          (so2_m_conv): ModuleList(
            (0): SO2_m_Convolution(
              (fc): Linear(in_features=768, out_features=384, bias=False)
            )
            (1): SO2_m_Convolution(
              (fc): Linear(in_features=576, out_features=288, bias=False)
            )
            (2): SO2_m_Convolution(
              (fc): Linear(in_features=384, out_features=192, bias=False)
            )
            (3): SO2_m_Convolution(
              (fc): Linear(in_features=192, out_features=96, bias=False)
            )
          )
          (rad_func): RadialFunction(
            (net): Sequential(
              (0): Linear(in_features=256, out_features=64, bias=True)
              (1): LayerNorm((64,), eps=1e-05, elementwise_affine=True)
              (2): SiLU()
              (3): Linear(in_features=64, out_features=64, bias=True)
              (4): LayerNorm((64,), eps=1e-05, elementwise_affine=True)
              (5): SiLU()
              (6): Linear(in_features=64, out_features=2880, bias=True)
            )
          )
        )
        (alpha_norm): LayerNorm((64,), eps=1e-05, elementwise_affine=True)
        (alpha_act): SmoothLeakyReLU(negative_slope=0.2)
        (s2_act): SeparableS2Activation(
          (scalar_act): SiLU()
          (s2_act): S2Activation(
            (act): SiLU()
          )
        )
        (so2_conv_2): SO2_Convolution(
          (mappingReduced): CoefficientMappingModule(lmax_list=[4], mmax_list=[4])
          (fc_m0): Linear(in_features=240, out_features=480, bias=True)
          (so2_m_conv): ModuleList(
            (0): SO2_m_Convolution(
              (fc): Linear(in_features=192, out_features=768, bias=False)
            )
            (1): SO2_m_Convolution(
              (fc): Linear(in_features=144, out_features=576, bias=False)
            )
            (2): SO2_m_Convolution(
              (fc): Linear(in_features=96, out_features=384, bias=False)
            )
            (3): SO2_m_Convolution(
              (fc): Linear(in_features=48, out_features=192, bias=False)
            )
          )
        )
        (proj): SO3_LinearV2(in_features=96, out_features=96, lmax=4)
      )
      (norm_2): EquivariantLayerNormArraySphericalHarmonics(lmax=4, num_channels=96, eps=1e-05, std_balance_degrees=True)
      (ffn): FeedForwardNetwork(
        (SO3_grid): (4, 4)
        (so3_linear_1): SO3_LinearV2(in_features=96, out_features=96, lmax=4)
        (scalar_mlp): Sequential(
          (0): Linear(in_features=96, out_features=96, bias=True)
          (1): SiLU()
        )
        (grid_mlp): Sequential(
          (0): Linear(in_features=96, out_features=96, bias=False)
          (1): SiLU()
          (2): Linear(in_features=96, out_features=96, bias=False)
          (3): SiLU()
          (4): Linear(in_features=96, out_features=96, bias=False)
        )
        (so3_linear_2): SO3_LinearV2(in_features=96, out_features=96, lmax=4)
      )
    )
  )
  (norm): EquivariantLayerNormArraySphericalHarmonics(lmax=4, num_channels=96, eps=1e-05, std_balance_degrees=True)
  (energy_block): FeedForwardNetwork(
    (SO3_grid): (4, 4)
    (so3_linear_1): SO3_LinearV2(in_features=96, out_features=96, lmax=4)
    (scalar_mlp): Sequential(
      (0): Linear(in_features=96, out_features=96, bias=True)
      (1): SiLU()
    )
    (grid_mlp): Sequential(
      (0): Linear(in_features=96, out_features=96, bias=False)
      (1): SiLU()
      (2): Linear(in_features=96, out_features=96, bias=False)
      (3): SiLU()
      (4): Linear(in_features=96, out_features=96, bias=False)
    )
    (so3_linear_2): SO3_LinearV2(in_features=96, out_features=1, lmax=4)
  )
)
2025-01-27 11:36:58,715 - logger.py:50 - Number of params: 9478977
2025-01-27 11:39:32,415 - logger.py:50 - Namespace(amp=False, compute_stats=False, config_file='qm9/U0_config.yml', data_path='datasets/qm9', dist_url='env://', distributed=False, drop_path=0.0, feature_type='one_hot', local_rank=0, loss='l1', model_ema=False, model_ema_decay=0.9999, model_ema_force_cpu=False, output_dir='train_results/qm9/U0', pin_mem=True, print_freq=100, rank=0, seed=0, standardize=False, target=7, workers=4, world_size=1)
2025-01-27 11:39:38,573 - logger.py:50 - Training set mean: -76.12300872802734, std:10.329672813415527
2025-01-27 11:39:39,118 - logger.py:50 - EquiformerV2_QM9(
  (sphere_embedding): Embedding(90, 96)
  (distance_expansion): GaussianSmearing()
  (SO3_rotation): ModuleList(
    (0): SO3_Rotation(
      (mapping): CoefficientMappingModule(lmax_list=[4], mmax_list=[4])
    )
  )
  (mappingReduced): CoefficientMappingModule(lmax_list=[4], mmax_list=[4])
  (SO3_grid): (4, 4)
  (edge_degree_embedding): EdgeDegreeEmbedding(
    (SO3_rotation): ModuleList(
      (0): SO3_Rotation(
        (mapping): CoefficientMappingModule(lmax_list=[4], mmax_list=[4])
      )
    )
    (mappingReduced): CoefficientMappingModule(lmax_list=[4], mmax_list=[4])
    (source_embedding): Embedding(90, 64)
    (target_embedding): Embedding(90, 64)
    (rad_func): RadialFunction(
      (net): Sequential(
        (0): Linear(in_features=256, out_features=64, bias=True)
        (1): LayerNorm((64,), eps=1e-05, elementwise_affine=True)
        (2): SiLU()
        (3): Linear(in_features=64, out_features=64, bias=True)
        (4): LayerNorm((64,), eps=1e-05, elementwise_affine=True)
        (5): SiLU()
        (6): Linear(in_features=64, out_features=480, bias=True)
      )
    )
  )
  (blocks): ModuleList(
    (0): TransBlockV2(
      (norm_1): EquivariantLayerNormArraySphericalHarmonics(lmax=4, num_channels=96, eps=1e-05, std_balance_degrees=True)
      (ga): SO2EquivariantGraphAttention(
        (SO3_rotation): ModuleList(
          (0): SO3_Rotation(
            (mapping): CoefficientMappingModule(lmax_list=[4], mmax_list=[4])
          )
        )
        (mappingReduced): CoefficientMappingModule(lmax_list=[4], mmax_list=[4])
        (SO3_grid): (4, 4)
        (source_embedding): Embedding(90, 64)
        (target_embedding): Embedding(90, 64)
        (so2_conv_1): SO2_Convolution(
          (mappingReduced): CoefficientMappingModule(lmax_list=[4], mmax_list=[4])
          (fc_m0): Linear(in_features=960, out_features=544, bias=True)
          (so2_m_conv): ModuleList(
            (0): SO2_m_Convolution(
              (fc): Linear(in_features=768, out_features=384, bias=False)
            )
            (1): SO2_m_Convolution(
              (fc): Linear(in_features=576, out_features=288, bias=False)
            )
            (2): SO2_m_Convolution(
              (fc): Linear(in_features=384, out_features=192, bias=False)
            )
            (3): SO2_m_Convolution(
              (fc): Linear(in_features=192, out_features=96, bias=False)
            )
          )
          (rad_func): RadialFunction(
            (net): Sequential(
              (0): Linear(in_features=256, out_features=64, bias=True)
              (1): LayerNorm((64,), eps=1e-05, elementwise_affine=True)
              (2): SiLU()
              (3): Linear(in_features=64, out_features=64, bias=True)
              (4): LayerNorm((64,), eps=1e-05, elementwise_affine=True)
              (5): SiLU()
              (6): Linear(in_features=64, out_features=2880, bias=True)
            )
          )
        )
        (alpha_norm): LayerNorm((64,), eps=1e-05, elementwise_affine=True)
        (alpha_act): SmoothLeakyReLU(negative_slope=0.2)
        (s2_act): SeparableS2Activation(
          (scalar_act): SiLU()
          (s2_act): S2Activation(
            (act): SiLU()
          )
        )
        (so2_conv_2): SO2_Convolution(
          (mappingReduced): CoefficientMappingModule(lmax_list=[4], mmax_list=[4])
          (fc_m0): Linear(in_features=240, out_features=480, bias=True)
          (so2_m_conv): ModuleList(
            (0): SO2_m_Convolution(
              (fc): Linear(in_features=192, out_features=768, bias=False)
            )
            (1): SO2_m_Convolution(
              (fc): Linear(in_features=144, out_features=576, bias=False)
            )
            (2): SO2_m_Convolution(
              (fc): Linear(in_features=96, out_features=384, bias=False)
            )
            (3): SO2_m_Convolution(
              (fc): Linear(in_features=48, out_features=192, bias=False)
            )
          )
        )
        (proj): SO3_LinearV2(in_features=96, out_features=96, lmax=4)
      )
      (norm_2): EquivariantLayerNormArraySphericalHarmonics(lmax=4, num_channels=96, eps=1e-05, std_balance_degrees=True)
      (ffn): FeedForwardNetwork(
        (SO3_grid): (4, 4)
        (so3_linear_1): SO3_LinearV2(in_features=96, out_features=96, lmax=4)
        (scalar_mlp): Sequential(
          (0): Linear(in_features=96, out_features=96, bias=True)
          (1): SiLU()
        )
        (grid_mlp): Sequential(
          (0): Linear(in_features=96, out_features=96, bias=False)
          (1): SiLU()
          (2): Linear(in_features=96, out_features=96, bias=False)
          (3): SiLU()
          (4): Linear(in_features=96, out_features=96, bias=False)
        )
        (so3_linear_2): SO3_LinearV2(in_features=96, out_features=96, lmax=4)
      )
    )
    (1): TransBlockV2(
      (norm_1): EquivariantLayerNormArraySphericalHarmonics(lmax=4, num_channels=96, eps=1e-05, std_balance_degrees=True)
      (ga): SO2EquivariantGraphAttention(
        (SO3_rotation): ModuleList(
          (0): SO3_Rotation(
            (mapping): CoefficientMappingModule(lmax_list=[4], mmax_list=[4])
          )
        )
        (mappingReduced): CoefficientMappingModule(lmax_list=[4], mmax_list=[4])
        (SO3_grid): (4, 4)
        (source_embedding): Embedding(90, 64)
        (target_embedding): Embedding(90, 64)
        (so2_conv_1): SO2_Convolution(
          (mappingReduced): CoefficientMappingModule(lmax_list=[4], mmax_list=[4])
          (fc_m0): Linear(in_features=960, out_features=544, bias=True)
          (so2_m_conv): ModuleList(
            (0): SO2_m_Convolution(
              (fc): Linear(in_features=768, out_features=384, bias=False)
            )
            (1): SO2_m_Convolution(
              (fc): Linear(in_features=576, out_features=288, bias=False)
            )
            (2): SO2_m_Convolution(
              (fc): Linear(in_features=384, out_features=192, bias=False)
            )
            (3): SO2_m_Convolution(
              (fc): Linear(in_features=192, out_features=96, bias=False)
            )
          )
          (rad_func): RadialFunction(
            (net): Sequential(
              (0): Linear(in_features=256, out_features=64, bias=True)
              (1): LayerNorm((64,), eps=1e-05, elementwise_affine=True)
              (2): SiLU()
              (3): Linear(in_features=64, out_features=64, bias=True)
              (4): LayerNorm((64,), eps=1e-05, elementwise_affine=True)
              (5): SiLU()
              (6): Linear(in_features=64, out_features=2880, bias=True)
            )
          )
        )
        (alpha_norm): LayerNorm((64,), eps=1e-05, elementwise_affine=True)
        (alpha_act): SmoothLeakyReLU(negative_slope=0.2)
        (s2_act): SeparableS2Activation(
          (scalar_act): SiLU()
          (s2_act): S2Activation(
            (act): SiLU()
          )
        )
        (so2_conv_2): SO2_Convolution(
          (mappingReduced): CoefficientMappingModule(lmax_list=[4], mmax_list=[4])
          (fc_m0): Linear(in_features=240, out_features=480, bias=True)
          (so2_m_conv): ModuleList(
            (0): SO2_m_Convolution(
              (fc): Linear(in_features=192, out_features=768, bias=False)
            )
            (1): SO2_m_Convolution(
              (fc): Linear(in_features=144, out_features=576, bias=False)
            )
            (2): SO2_m_Convolution(
              (fc): Linear(in_features=96, out_features=384, bias=False)
            )
            (3): SO2_m_Convolution(
              (fc): Linear(in_features=48, out_features=192, bias=False)
            )
          )
        )
        (proj): SO3_LinearV2(in_features=96, out_features=96, lmax=4)
      )
      (norm_2): EquivariantLayerNormArraySphericalHarmonics(lmax=4, num_channels=96, eps=1e-05, std_balance_degrees=True)
      (ffn): FeedForwardNetwork(
        (SO3_grid): (4, 4)
        (so3_linear_1): SO3_LinearV2(in_features=96, out_features=96, lmax=4)
        (scalar_mlp): Sequential(
          (0): Linear(in_features=96, out_features=96, bias=True)
          (1): SiLU()
        )
        (grid_mlp): Sequential(
          (0): Linear(in_features=96, out_features=96, bias=False)
          (1): SiLU()
          (2): Linear(in_features=96, out_features=96, bias=False)
          (3): SiLU()
          (4): Linear(in_features=96, out_features=96, bias=False)
        )
        (so3_linear_2): SO3_LinearV2(in_features=96, out_features=96, lmax=4)
      )
    )
    (2): TransBlockV2(
      (norm_1): EquivariantLayerNormArraySphericalHarmonics(lmax=4, num_channels=96, eps=1e-05, std_balance_degrees=True)
      (ga): SO2EquivariantGraphAttention(
        (SO3_rotation): ModuleList(
          (0): SO3_Rotation(
            (mapping): CoefficientMappingModule(lmax_list=[4], mmax_list=[4])
          )
        )
        (mappingReduced): CoefficientMappingModule(lmax_list=[4], mmax_list=[4])
        (SO3_grid): (4, 4)
        (source_embedding): Embedding(90, 64)
        (target_embedding): Embedding(90, 64)
        (so2_conv_1): SO2_Convolution(
          (mappingReduced): CoefficientMappingModule(lmax_list=[4], mmax_list=[4])
          (fc_m0): Linear(in_features=960, out_features=544, bias=True)
          (so2_m_conv): ModuleList(
            (0): SO2_m_Convolution(
              (fc): Linear(in_features=768, out_features=384, bias=False)
            )
            (1): SO2_m_Convolution(
              (fc): Linear(in_features=576, out_features=288, bias=False)
            )
            (2): SO2_m_Convolution(
              (fc): Linear(in_features=384, out_features=192, bias=False)
            )
            (3): SO2_m_Convolution(
              (fc): Linear(in_features=192, out_features=96, bias=False)
            )
          )
          (rad_func): RadialFunction(
            (net): Sequential(
              (0): Linear(in_features=256, out_features=64, bias=True)
              (1): LayerNorm((64,), eps=1e-05, elementwise_affine=True)
              (2): SiLU()
              (3): Linear(in_features=64, out_features=64, bias=True)
              (4): LayerNorm((64,), eps=1e-05, elementwise_affine=True)
              (5): SiLU()
              (6): Linear(in_features=64, out_features=2880, bias=True)
            )
          )
        )
        (alpha_norm): LayerNorm((64,), eps=1e-05, elementwise_affine=True)
        (alpha_act): SmoothLeakyReLU(negative_slope=0.2)
        (s2_act): SeparableS2Activation(
          (scalar_act): SiLU()
          (s2_act): S2Activation(
            (act): SiLU()
          )
        )
        (so2_conv_2): SO2_Convolution(
          (mappingReduced): CoefficientMappingModule(lmax_list=[4], mmax_list=[4])
          (fc_m0): Linear(in_features=240, out_features=480, bias=True)
          (so2_m_conv): ModuleList(
            (0): SO2_m_Convolution(
              (fc): Linear(in_features=192, out_features=768, bias=False)
            )
            (1): SO2_m_Convolution(
              (fc): Linear(in_features=144, out_features=576, bias=False)
            )
            (2): SO2_m_Convolution(
              (fc): Linear(in_features=96, out_features=384, bias=False)
            )
            (3): SO2_m_Convolution(
              (fc): Linear(in_features=48, out_features=192, bias=False)
            )
          )
        )
        (proj): SO3_LinearV2(in_features=96, out_features=96, lmax=4)
      )
      (norm_2): EquivariantLayerNormArraySphericalHarmonics(lmax=4, num_channels=96, eps=1e-05, std_balance_degrees=True)
      (ffn): FeedForwardNetwork(
        (SO3_grid): (4, 4)
        (so3_linear_1): SO3_LinearV2(in_features=96, out_features=96, lmax=4)
        (scalar_mlp): Sequential(
          (0): Linear(in_features=96, out_features=96, bias=True)
          (1): SiLU()
        )
        (grid_mlp): Sequential(
          (0): Linear(in_features=96, out_features=96, bias=False)
          (1): SiLU()
          (2): Linear(in_features=96, out_features=96, bias=False)
          (3): SiLU()
          (4): Linear(in_features=96, out_features=96, bias=False)
        )
        (so3_linear_2): SO3_LinearV2(in_features=96, out_features=96, lmax=4)
      )
    )
    (3): TransBlockV2(
      (norm_1): EquivariantLayerNormArraySphericalHarmonics(lmax=4, num_channels=96, eps=1e-05, std_balance_degrees=True)
      (ga): SO2EquivariantGraphAttention(
        (SO3_rotation): ModuleList(
          (0): SO3_Rotation(
            (mapping): CoefficientMappingModule(lmax_list=[4], mmax_list=[4])
          )
        )
        (mappingReduced): CoefficientMappingModule(lmax_list=[4], mmax_list=[4])
        (SO3_grid): (4, 4)
        (source_embedding): Embedding(90, 64)
        (target_embedding): Embedding(90, 64)
        (so2_conv_1): SO2_Convolution(
          (mappingReduced): CoefficientMappingModule(lmax_list=[4], mmax_list=[4])
          (fc_m0): Linear(in_features=960, out_features=544, bias=True)
          (so2_m_conv): ModuleList(
            (0): SO2_m_Convolution(
              (fc): Linear(in_features=768, out_features=384, bias=False)
            )
            (1): SO2_m_Convolution(
              (fc): Linear(in_features=576, out_features=288, bias=False)
            )
            (2): SO2_m_Convolution(
              (fc): Linear(in_features=384, out_features=192, bias=False)
            )
            (3): SO2_m_Convolution(
              (fc): Linear(in_features=192, out_features=96, bias=False)
            )
          )
          (rad_func): RadialFunction(
            (net): Sequential(
              (0): Linear(in_features=256, out_features=64, bias=True)
              (1): LayerNorm((64,), eps=1e-05, elementwise_affine=True)
              (2): SiLU()
              (3): Linear(in_features=64, out_features=64, bias=True)
              (4): LayerNorm((64,), eps=1e-05, elementwise_affine=True)
              (5): SiLU()
              (6): Linear(in_features=64, out_features=2880, bias=True)
            )
          )
        )
        (alpha_norm): LayerNorm((64,), eps=1e-05, elementwise_affine=True)
        (alpha_act): SmoothLeakyReLU(negative_slope=0.2)
        (s2_act): SeparableS2Activation(
          (scalar_act): SiLU()
          (s2_act): S2Activation(
            (act): SiLU()
          )
        )
        (so2_conv_2): SO2_Convolution(
          (mappingReduced): CoefficientMappingModule(lmax_list=[4], mmax_list=[4])
          (fc_m0): Linear(in_features=240, out_features=480, bias=True)
          (so2_m_conv): ModuleList(
            (0): SO2_m_Convolution(
              (fc): Linear(in_features=192, out_features=768, bias=False)
            )
            (1): SO2_m_Convolution(
              (fc): Linear(in_features=144, out_features=576, bias=False)
            )
            (2): SO2_m_Convolution(
              (fc): Linear(in_features=96, out_features=384, bias=False)
            )
            (3): SO2_m_Convolution(
              (fc): Linear(in_features=48, out_features=192, bias=False)
            )
          )
        )
        (proj): SO3_LinearV2(in_features=96, out_features=96, lmax=4)
      )
      (norm_2): EquivariantLayerNormArraySphericalHarmonics(lmax=4, num_channels=96, eps=1e-05, std_balance_degrees=True)
      (ffn): FeedForwardNetwork(
        (SO3_grid): (4, 4)
        (so3_linear_1): SO3_LinearV2(in_features=96, out_features=96, lmax=4)
        (scalar_mlp): Sequential(
          (0): Linear(in_features=96, out_features=96, bias=True)
          (1): SiLU()
        )
        (grid_mlp): Sequential(
          (0): Linear(in_features=96, out_features=96, bias=False)
          (1): SiLU()
          (2): Linear(in_features=96, out_features=96, bias=False)
          (3): SiLU()
          (4): Linear(in_features=96, out_features=96, bias=False)
        )
        (so3_linear_2): SO3_LinearV2(in_features=96, out_features=96, lmax=4)
      )
    )
    (4): TransBlockV2(
      (norm_1): EquivariantLayerNormArraySphericalHarmonics(lmax=4, num_channels=96, eps=1e-05, std_balance_degrees=True)
      (ga): SO2EquivariantGraphAttention(
        (SO3_rotation): ModuleList(
          (0): SO3_Rotation(
            (mapping): CoefficientMappingModule(lmax_list=[4], mmax_list=[4])
          )
        )
        (mappingReduced): CoefficientMappingModule(lmax_list=[4], mmax_list=[4])
        (SO3_grid): (4, 4)
        (source_embedding): Embedding(90, 64)
        (target_embedding): Embedding(90, 64)
        (so2_conv_1): SO2_Convolution(
          (mappingReduced): CoefficientMappingModule(lmax_list=[4], mmax_list=[4])
          (fc_m0): Linear(in_features=960, out_features=544, bias=True)
          (so2_m_conv): ModuleList(
            (0): SO2_m_Convolution(
              (fc): Linear(in_features=768, out_features=384, bias=False)
            )
            (1): SO2_m_Convolution(
              (fc): Linear(in_features=576, out_features=288, bias=False)
            )
            (2): SO2_m_Convolution(
              (fc): Linear(in_features=384, out_features=192, bias=False)
            )
            (3): SO2_m_Convolution(
              (fc): Linear(in_features=192, out_features=96, bias=False)
            )
          )
          (rad_func): RadialFunction(
            (net): Sequential(
              (0): Linear(in_features=256, out_features=64, bias=True)
              (1): LayerNorm((64,), eps=1e-05, elementwise_affine=True)
              (2): SiLU()
              (3): Linear(in_features=64, out_features=64, bias=True)
              (4): LayerNorm((64,), eps=1e-05, elementwise_affine=True)
              (5): SiLU()
              (6): Linear(in_features=64, out_features=2880, bias=True)
            )
          )
        )
        (alpha_norm): LayerNorm((64,), eps=1e-05, elementwise_affine=True)
        (alpha_act): SmoothLeakyReLU(negative_slope=0.2)
        (s2_act): SeparableS2Activation(
          (scalar_act): SiLU()
          (s2_act): S2Activation(
            (act): SiLU()
          )
        )
        (so2_conv_2): SO2_Convolution(
          (mappingReduced): CoefficientMappingModule(lmax_list=[4], mmax_list=[4])
          (fc_m0): Linear(in_features=240, out_features=480, bias=True)
          (so2_m_conv): ModuleList(
            (0): SO2_m_Convolution(
              (fc): Linear(in_features=192, out_features=768, bias=False)
            )
            (1): SO2_m_Convolution(
              (fc): Linear(in_features=144, out_features=576, bias=False)
            )
            (2): SO2_m_Convolution(
              (fc): Linear(in_features=96, out_features=384, bias=False)
            )
            (3): SO2_m_Convolution(
              (fc): Linear(in_features=48, out_features=192, bias=False)
            )
          )
        )
        (proj): SO3_LinearV2(in_features=96, out_features=96, lmax=4)
      )
      (norm_2): EquivariantLayerNormArraySphericalHarmonics(lmax=4, num_channels=96, eps=1e-05, std_balance_degrees=True)
      (ffn): FeedForwardNetwork(
        (SO3_grid): (4, 4)
        (so3_linear_1): SO3_LinearV2(in_features=96, out_features=96, lmax=4)
        (scalar_mlp): Sequential(
          (0): Linear(in_features=96, out_features=96, bias=True)
          (1): SiLU()
        )
        (grid_mlp): Sequential(
          (0): Linear(in_features=96, out_features=96, bias=False)
          (1): SiLU()
          (2): Linear(in_features=96, out_features=96, bias=False)
          (3): SiLU()
          (4): Linear(in_features=96, out_features=96, bias=False)
        )
        (so3_linear_2): SO3_LinearV2(in_features=96, out_features=96, lmax=4)
      )
    )
  )
  (norm): EquivariantLayerNormArraySphericalHarmonics(lmax=4, num_channels=96, eps=1e-05, std_balance_degrees=True)
  (energy_block): FeedForwardNetwork(
    (SO3_grid): (4, 4)
    (so3_linear_1): SO3_LinearV2(in_features=96, out_features=96, lmax=4)
    (scalar_mlp): Sequential(
      (0): Linear(in_features=96, out_features=96, bias=True)
      (1): SiLU()
    )
    (grid_mlp): Sequential(
      (0): Linear(in_features=96, out_features=96, bias=False)
      (1): SiLU()
      (2): Linear(in_features=96, out_features=96, bias=False)
      (3): SiLU()
      (4): Linear(in_features=96, out_features=96, bias=False)
    )
    (so3_linear_2): SO3_LinearV2(in_features=96, out_features=1, lmax=4)
  )
)
2025-01-27 11:39:39,835 - logger.py:50 - Number of params: 9478977
2025-01-27 11:44:49,537 - logger.py:50 - Namespace(amp=False, compute_stats=False, config_file='qm9/U0_config.yml', data_path='datasets/qm9', dist_url='env://', distributed=False, drop_path=0.0, feature_type='one_hot', local_rank=0, loss='l1', model_ema=False, model_ema_decay=0.9999, model_ema_force_cpu=False, output_dir='train_results/qm9/U0', pin_mem=True, print_freq=100, rank=0, seed=0, standardize=False, target=7, workers=4, world_size=1)
2025-01-27 11:46:02,865 - logger.py:50 - Training set mean: -76.12300872802734, std:10.329672813415527
2025-01-27 11:46:03,401 - logger.py:50 - EquiformerV2_QM9(
  (sphere_embedding): Embedding(90, 96)
  (distance_expansion): GaussianSmearing()
  (SO3_rotation): ModuleList(
    (0): SO3_Rotation(
      (mapping): CoefficientMappingModule(lmax_list=[4], mmax_list=[4])
    )
  )
  (mappingReduced): CoefficientMappingModule(lmax_list=[4], mmax_list=[4])
  (SO3_grid): (4, 4)
  (edge_degree_embedding): EdgeDegreeEmbedding(
    (SO3_rotation): ModuleList(
      (0): SO3_Rotation(
        (mapping): CoefficientMappingModule(lmax_list=[4], mmax_list=[4])
      )
    )
    (mappingReduced): CoefficientMappingModule(lmax_list=[4], mmax_list=[4])
    (source_embedding): Embedding(90, 64)
    (target_embedding): Embedding(90, 64)
    (rad_func): RadialFunction(
      (net): Sequential(
        (0): Linear(in_features=256, out_features=64, bias=True)
        (1): LayerNorm((64,), eps=1e-05, elementwise_affine=True)
        (2): SiLU()
        (3): Linear(in_features=64, out_features=64, bias=True)
        (4): LayerNorm((64,), eps=1e-05, elementwise_affine=True)
        (5): SiLU()
        (6): Linear(in_features=64, out_features=480, bias=True)
      )
    )
  )
  (blocks): ModuleList(
    (0): TransBlockV2(
      (norm_1): EquivariantLayerNormArraySphericalHarmonics(lmax=4, num_channels=96, eps=1e-05, std_balance_degrees=True)
      (ga): SO2EquivariantGraphAttention(
        (SO3_rotation): ModuleList(
          (0): SO3_Rotation(
            (mapping): CoefficientMappingModule(lmax_list=[4], mmax_list=[4])
          )
        )
        (mappingReduced): CoefficientMappingModule(lmax_list=[4], mmax_list=[4])
        (SO3_grid): (4, 4)
        (source_embedding): Embedding(90, 64)
        (target_embedding): Embedding(90, 64)
        (so2_conv_1): SO2_Convolution(
          (mappingReduced): CoefficientMappingModule(lmax_list=[4], mmax_list=[4])
          (fc_m0): Linear(in_features=960, out_features=544, bias=True)
          (so2_m_conv): ModuleList(
            (0): SO2_m_Convolution(
              (fc): Linear(in_features=768, out_features=384, bias=False)
            )
            (1): SO2_m_Convolution(
              (fc): Linear(in_features=576, out_features=288, bias=False)
            )
            (2): SO2_m_Convolution(
              (fc): Linear(in_features=384, out_features=192, bias=False)
            )
            (3): SO2_m_Convolution(
              (fc): Linear(in_features=192, out_features=96, bias=False)
            )
          )
          (rad_func): RadialFunction(
            (net): Sequential(
              (0): Linear(in_features=256, out_features=64, bias=True)
              (1): LayerNorm((64,), eps=1e-05, elementwise_affine=True)
              (2): SiLU()
              (3): Linear(in_features=64, out_features=64, bias=True)
              (4): LayerNorm((64,), eps=1e-05, elementwise_affine=True)
              (5): SiLU()
              (6): Linear(in_features=64, out_features=2880, bias=True)
            )
          )
        )
        (alpha_norm): LayerNorm((64,), eps=1e-05, elementwise_affine=True)
        (alpha_act): SmoothLeakyReLU(negative_slope=0.2)
        (s2_act): SeparableS2Activation(
          (scalar_act): SiLU()
          (s2_act): S2Activation(
            (act): SiLU()
          )
        )
        (so2_conv_2): SO2_Convolution(
          (mappingReduced): CoefficientMappingModule(lmax_list=[4], mmax_list=[4])
          (fc_m0): Linear(in_features=240, out_features=480, bias=True)
          (so2_m_conv): ModuleList(
            (0): SO2_m_Convolution(
              (fc): Linear(in_features=192, out_features=768, bias=False)
            )
            (1): SO2_m_Convolution(
              (fc): Linear(in_features=144, out_features=576, bias=False)
            )
            (2): SO2_m_Convolution(
              (fc): Linear(in_features=96, out_features=384, bias=False)
            )
            (3): SO2_m_Convolution(
              (fc): Linear(in_features=48, out_features=192, bias=False)
            )
          )
        )
        (proj): SO3_LinearV2(in_features=96, out_features=96, lmax=4)
      )
      (norm_2): EquivariantLayerNormArraySphericalHarmonics(lmax=4, num_channels=96, eps=1e-05, std_balance_degrees=True)
      (ffn): FeedForwardNetwork(
        (SO3_grid): (4, 4)
        (so3_linear_1): SO3_LinearV2(in_features=96, out_features=96, lmax=4)
        (scalar_mlp): Sequential(
          (0): Linear(in_features=96, out_features=96, bias=True)
          (1): SiLU()
        )
        (grid_mlp): Sequential(
          (0): Linear(in_features=96, out_features=96, bias=False)
          (1): SiLU()
          (2): Linear(in_features=96, out_features=96, bias=False)
          (3): SiLU()
          (4): Linear(in_features=96, out_features=96, bias=False)
        )
        (so3_linear_2): SO3_LinearV2(in_features=96, out_features=96, lmax=4)
      )
    )
    (1): TransBlockV2(
      (norm_1): EquivariantLayerNormArraySphericalHarmonics(lmax=4, num_channels=96, eps=1e-05, std_balance_degrees=True)
      (ga): SO2EquivariantGraphAttention(
        (SO3_rotation): ModuleList(
          (0): SO3_Rotation(
            (mapping): CoefficientMappingModule(lmax_list=[4], mmax_list=[4])
          )
        )
        (mappingReduced): CoefficientMappingModule(lmax_list=[4], mmax_list=[4])
        (SO3_grid): (4, 4)
        (source_embedding): Embedding(90, 64)
        (target_embedding): Embedding(90, 64)
        (so2_conv_1): SO2_Convolution(
          (mappingReduced): CoefficientMappingModule(lmax_list=[4], mmax_list=[4])
          (fc_m0): Linear(in_features=960, out_features=544, bias=True)
          (so2_m_conv): ModuleList(
            (0): SO2_m_Convolution(
              (fc): Linear(in_features=768, out_features=384, bias=False)
            )
            (1): SO2_m_Convolution(
              (fc): Linear(in_features=576, out_features=288, bias=False)
            )
            (2): SO2_m_Convolution(
              (fc): Linear(in_features=384, out_features=192, bias=False)
            )
            (3): SO2_m_Convolution(
              (fc): Linear(in_features=192, out_features=96, bias=False)
            )
          )
          (rad_func): RadialFunction(
            (net): Sequential(
              (0): Linear(in_features=256, out_features=64, bias=True)
              (1): LayerNorm((64,), eps=1e-05, elementwise_affine=True)
              (2): SiLU()
              (3): Linear(in_features=64, out_features=64, bias=True)
              (4): LayerNorm((64,), eps=1e-05, elementwise_affine=True)
              (5): SiLU()
              (6): Linear(in_features=64, out_features=2880, bias=True)
            )
          )
        )
        (alpha_norm): LayerNorm((64,), eps=1e-05, elementwise_affine=True)
        (alpha_act): SmoothLeakyReLU(negative_slope=0.2)
        (s2_act): SeparableS2Activation(
          (scalar_act): SiLU()
          (s2_act): S2Activation(
            (act): SiLU()
          )
        )
        (so2_conv_2): SO2_Convolution(
          (mappingReduced): CoefficientMappingModule(lmax_list=[4], mmax_list=[4])
          (fc_m0): Linear(in_features=240, out_features=480, bias=True)
          (so2_m_conv): ModuleList(
            (0): SO2_m_Convolution(
              (fc): Linear(in_features=192, out_features=768, bias=False)
            )
            (1): SO2_m_Convolution(
              (fc): Linear(in_features=144, out_features=576, bias=False)
            )
            (2): SO2_m_Convolution(
              (fc): Linear(in_features=96, out_features=384, bias=False)
            )
            (3): SO2_m_Convolution(
              (fc): Linear(in_features=48, out_features=192, bias=False)
            )
          )
        )
        (proj): SO3_LinearV2(in_features=96, out_features=96, lmax=4)
      )
      (norm_2): EquivariantLayerNormArraySphericalHarmonics(lmax=4, num_channels=96, eps=1e-05, std_balance_degrees=True)
      (ffn): FeedForwardNetwork(
        (SO3_grid): (4, 4)
        (so3_linear_1): SO3_LinearV2(in_features=96, out_features=96, lmax=4)
        (scalar_mlp): Sequential(
          (0): Linear(in_features=96, out_features=96, bias=True)
          (1): SiLU()
        )
        (grid_mlp): Sequential(
          (0): Linear(in_features=96, out_features=96, bias=False)
          (1): SiLU()
          (2): Linear(in_features=96, out_features=96, bias=False)
          (3): SiLU()
          (4): Linear(in_features=96, out_features=96, bias=False)
        )
        (so3_linear_2): SO3_LinearV2(in_features=96, out_features=96, lmax=4)
      )
    )
    (2): TransBlockV2(
      (norm_1): EquivariantLayerNormArraySphericalHarmonics(lmax=4, num_channels=96, eps=1e-05, std_balance_degrees=True)
      (ga): SO2EquivariantGraphAttention(
        (SO3_rotation): ModuleList(
          (0): SO3_Rotation(
            (mapping): CoefficientMappingModule(lmax_list=[4], mmax_list=[4])
          )
        )
        (mappingReduced): CoefficientMappingModule(lmax_list=[4], mmax_list=[4])
        (SO3_grid): (4, 4)
        (source_embedding): Embedding(90, 64)
        (target_embedding): Embedding(90, 64)
        (so2_conv_1): SO2_Convolution(
          (mappingReduced): CoefficientMappingModule(lmax_list=[4], mmax_list=[4])
          (fc_m0): Linear(in_features=960, out_features=544, bias=True)
          (so2_m_conv): ModuleList(
            (0): SO2_m_Convolution(
              (fc): Linear(in_features=768, out_features=384, bias=False)
            )
            (1): SO2_m_Convolution(
              (fc): Linear(in_features=576, out_features=288, bias=False)
            )
            (2): SO2_m_Convolution(
              (fc): Linear(in_features=384, out_features=192, bias=False)
            )
            (3): SO2_m_Convolution(
              (fc): Linear(in_features=192, out_features=96, bias=False)
            )
          )
          (rad_func): RadialFunction(
            (net): Sequential(
              (0): Linear(in_features=256, out_features=64, bias=True)
              (1): LayerNorm((64,), eps=1e-05, elementwise_affine=True)
              (2): SiLU()
              (3): Linear(in_features=64, out_features=64, bias=True)
              (4): LayerNorm((64,), eps=1e-05, elementwise_affine=True)
              (5): SiLU()
              (6): Linear(in_features=64, out_features=2880, bias=True)
            )
          )
        )
        (alpha_norm): LayerNorm((64,), eps=1e-05, elementwise_affine=True)
        (alpha_act): SmoothLeakyReLU(negative_slope=0.2)
        (s2_act): SeparableS2Activation(
          (scalar_act): SiLU()
          (s2_act): S2Activation(
            (act): SiLU()
          )
        )
        (so2_conv_2): SO2_Convolution(
          (mappingReduced): CoefficientMappingModule(lmax_list=[4], mmax_list=[4])
          (fc_m0): Linear(in_features=240, out_features=480, bias=True)
          (so2_m_conv): ModuleList(
            (0): SO2_m_Convolution(
              (fc): Linear(in_features=192, out_features=768, bias=False)
            )
            (1): SO2_m_Convolution(
              (fc): Linear(in_features=144, out_features=576, bias=False)
            )
            (2): SO2_m_Convolution(
              (fc): Linear(in_features=96, out_features=384, bias=False)
            )
            (3): SO2_m_Convolution(
              (fc): Linear(in_features=48, out_features=192, bias=False)
            )
          )
        )
        (proj): SO3_LinearV2(in_features=96, out_features=96, lmax=4)
      )
      (norm_2): EquivariantLayerNormArraySphericalHarmonics(lmax=4, num_channels=96, eps=1e-05, std_balance_degrees=True)
      (ffn): FeedForwardNetwork(
        (SO3_grid): (4, 4)
        (so3_linear_1): SO3_LinearV2(in_features=96, out_features=96, lmax=4)
        (scalar_mlp): Sequential(
          (0): Linear(in_features=96, out_features=96, bias=True)
          (1): SiLU()
        )
        (grid_mlp): Sequential(
          (0): Linear(in_features=96, out_features=96, bias=False)
          (1): SiLU()
          (2): Linear(in_features=96, out_features=96, bias=False)
          (3): SiLU()
          (4): Linear(in_features=96, out_features=96, bias=False)
        )
        (so3_linear_2): SO3_LinearV2(in_features=96, out_features=96, lmax=4)
      )
    )
    (3): TransBlockV2(
      (norm_1): EquivariantLayerNormArraySphericalHarmonics(lmax=4, num_channels=96, eps=1e-05, std_balance_degrees=True)
      (ga): SO2EquivariantGraphAttention(
        (SO3_rotation): ModuleList(
          (0): SO3_Rotation(
            (mapping): CoefficientMappingModule(lmax_list=[4], mmax_list=[4])
          )
        )
        (mappingReduced): CoefficientMappingModule(lmax_list=[4], mmax_list=[4])
        (SO3_grid): (4, 4)
        (source_embedding): Embedding(90, 64)
        (target_embedding): Embedding(90, 64)
        (so2_conv_1): SO2_Convolution(
          (mappingReduced): CoefficientMappingModule(lmax_list=[4], mmax_list=[4])
          (fc_m0): Linear(in_features=960, out_features=544, bias=True)
          (so2_m_conv): ModuleList(
            (0): SO2_m_Convolution(
              (fc): Linear(in_features=768, out_features=384, bias=False)
            )
            (1): SO2_m_Convolution(
              (fc): Linear(in_features=576, out_features=288, bias=False)
            )
            (2): SO2_m_Convolution(
              (fc): Linear(in_features=384, out_features=192, bias=False)
            )
            (3): SO2_m_Convolution(
              (fc): Linear(in_features=192, out_features=96, bias=False)
            )
          )
          (rad_func): RadialFunction(
            (net): Sequential(
              (0): Linear(in_features=256, out_features=64, bias=True)
              (1): LayerNorm((64,), eps=1e-05, elementwise_affine=True)
              (2): SiLU()
              (3): Linear(in_features=64, out_features=64, bias=True)
              (4): LayerNorm((64,), eps=1e-05, elementwise_affine=True)
              (5): SiLU()
              (6): Linear(in_features=64, out_features=2880, bias=True)
            )
          )
        )
        (alpha_norm): LayerNorm((64,), eps=1e-05, elementwise_affine=True)
        (alpha_act): SmoothLeakyReLU(negative_slope=0.2)
        (s2_act): SeparableS2Activation(
          (scalar_act): SiLU()
          (s2_act): S2Activation(
            (act): SiLU()
          )
        )
        (so2_conv_2): SO2_Convolution(
          (mappingReduced): CoefficientMappingModule(lmax_list=[4], mmax_list=[4])
          (fc_m0): Linear(in_features=240, out_features=480, bias=True)
          (so2_m_conv): ModuleList(
            (0): SO2_m_Convolution(
              (fc): Linear(in_features=192, out_features=768, bias=False)
            )
            (1): SO2_m_Convolution(
              (fc): Linear(in_features=144, out_features=576, bias=False)
            )
            (2): SO2_m_Convolution(
              (fc): Linear(in_features=96, out_features=384, bias=False)
            )
            (3): SO2_m_Convolution(
              (fc): Linear(in_features=48, out_features=192, bias=False)
            )
          )
        )
        (proj): SO3_LinearV2(in_features=96, out_features=96, lmax=4)
      )
      (norm_2): EquivariantLayerNormArraySphericalHarmonics(lmax=4, num_channels=96, eps=1e-05, std_balance_degrees=True)
      (ffn): FeedForwardNetwork(
        (SO3_grid): (4, 4)
        (so3_linear_1): SO3_LinearV2(in_features=96, out_features=96, lmax=4)
        (scalar_mlp): Sequential(
          (0): Linear(in_features=96, out_features=96, bias=True)
          (1): SiLU()
        )
        (grid_mlp): Sequential(
          (0): Linear(in_features=96, out_features=96, bias=False)
          (1): SiLU()
          (2): Linear(in_features=96, out_features=96, bias=False)
          (3): SiLU()
          (4): Linear(in_features=96, out_features=96, bias=False)
        )
        (so3_linear_2): SO3_LinearV2(in_features=96, out_features=96, lmax=4)
      )
    )
    (4): TransBlockV2(
      (norm_1): EquivariantLayerNormArraySphericalHarmonics(lmax=4, num_channels=96, eps=1e-05, std_balance_degrees=True)
      (ga): SO2EquivariantGraphAttention(
        (SO3_rotation): ModuleList(
          (0): SO3_Rotation(
            (mapping): CoefficientMappingModule(lmax_list=[4], mmax_list=[4])
          )
        )
        (mappingReduced): CoefficientMappingModule(lmax_list=[4], mmax_list=[4])
        (SO3_grid): (4, 4)
        (source_embedding): Embedding(90, 64)
        (target_embedding): Embedding(90, 64)
        (so2_conv_1): SO2_Convolution(
          (mappingReduced): CoefficientMappingModule(lmax_list=[4], mmax_list=[4])
          (fc_m0): Linear(in_features=960, out_features=544, bias=True)
          (so2_m_conv): ModuleList(
            (0): SO2_m_Convolution(
              (fc): Linear(in_features=768, out_features=384, bias=False)
            )
            (1): SO2_m_Convolution(
              (fc): Linear(in_features=576, out_features=288, bias=False)
            )
            (2): SO2_m_Convolution(
              (fc): Linear(in_features=384, out_features=192, bias=False)
            )
            (3): SO2_m_Convolution(
              (fc): Linear(in_features=192, out_features=96, bias=False)
            )
          )
          (rad_func): RadialFunction(
            (net): Sequential(
              (0): Linear(in_features=256, out_features=64, bias=True)
              (1): LayerNorm((64,), eps=1e-05, elementwise_affine=True)
              (2): SiLU()
              (3): Linear(in_features=64, out_features=64, bias=True)
              (4): LayerNorm((64,), eps=1e-05, elementwise_affine=True)
              (5): SiLU()
              (6): Linear(in_features=64, out_features=2880, bias=True)
            )
          )
        )
        (alpha_norm): LayerNorm((64,), eps=1e-05, elementwise_affine=True)
        (alpha_act): SmoothLeakyReLU(negative_slope=0.2)
        (s2_act): SeparableS2Activation(
          (scalar_act): SiLU()
          (s2_act): S2Activation(
            (act): SiLU()
          )
        )
        (so2_conv_2): SO2_Convolution(
          (mappingReduced): CoefficientMappingModule(lmax_list=[4], mmax_list=[4])
          (fc_m0): Linear(in_features=240, out_features=480, bias=True)
          (so2_m_conv): ModuleList(
            (0): SO2_m_Convolution(
              (fc): Linear(in_features=192, out_features=768, bias=False)
            )
            (1): SO2_m_Convolution(
              (fc): Linear(in_features=144, out_features=576, bias=False)
            )
            (2): SO2_m_Convolution(
              (fc): Linear(in_features=96, out_features=384, bias=False)
            )
            (3): SO2_m_Convolution(
              (fc): Linear(in_features=48, out_features=192, bias=False)
            )
          )
        )
        (proj): SO3_LinearV2(in_features=96, out_features=96, lmax=4)
      )
      (norm_2): EquivariantLayerNormArraySphericalHarmonics(lmax=4, num_channels=96, eps=1e-05, std_balance_degrees=True)
      (ffn): FeedForwardNetwork(
        (SO3_grid): (4, 4)
        (so3_linear_1): SO3_LinearV2(in_features=96, out_features=96, lmax=4)
        (scalar_mlp): Sequential(
          (0): Linear(in_features=96, out_features=96, bias=True)
          (1): SiLU()
        )
        (grid_mlp): Sequential(
          (0): Linear(in_features=96, out_features=96, bias=False)
          (1): SiLU()
          (2): Linear(in_features=96, out_features=96, bias=False)
          (3): SiLU()
          (4): Linear(in_features=96, out_features=96, bias=False)
        )
        (so3_linear_2): SO3_LinearV2(in_features=96, out_features=96, lmax=4)
      )
    )
  )
  (norm): EquivariantLayerNormArraySphericalHarmonics(lmax=4, num_channels=96, eps=1e-05, std_balance_degrees=True)
  (energy_block): FeedForwardNetwork(
    (SO3_grid): (4, 4)
    (so3_linear_1): SO3_LinearV2(in_features=96, out_features=96, lmax=4)
    (scalar_mlp): Sequential(
      (0): Linear(in_features=96, out_features=96, bias=True)
      (1): SiLU()
    )
    (grid_mlp): Sequential(
      (0): Linear(in_features=96, out_features=96, bias=False)
      (1): SiLU()
      (2): Linear(in_features=96, out_features=96, bias=False)
      (3): SiLU()
      (4): Linear(in_features=96, out_features=96, bias=False)
    )
    (so3_linear_2): SO3_LinearV2(in_features=96, out_features=1, lmax=4)
  )
)
2025-01-27 11:46:04,024 - logger.py:50 - Number of params: 9478977
2025-01-27 11:46:05,523 - logger.py:50 - Epoch: [0][0/2291] 	 loss: 75.56126, MAE: 75.56126, time/step=1496ms, lr=5.40e-05
2025-01-27 11:46:38,650 - logger.py:50 - Epoch: [0][100/2291] 	 loss: 73.65498, MAE: 73.65498, time/step=343ms, lr=5.40e-05
…
